…
    backend: LMDB
  }
}
layer {
  name: "gaze"
  type: "Data"
  top: "gaze"
  include {
    phase: TRAIN
  }
  data_param {
    source: "lmdb/train_gaze_lmdb"
    batch_size: 256
    backend: LMDB
  }
}
layer {
  name: "gazepred"
  type: "Data"
  top: "gazepred"
  include {
    phase: TRAIN
  }
  data_param {
    source: "lmdb/train_gazepred_lmdb"
    batch_size: 256
    backend: LMDB
  }
}
layer {
  name: "pen"
  type: "Data"
  top: "pen"
  include {
    phase: TRAIN
  }
  data_param {
    source: "lmdb/train_pen_lmdb"
    batch_size: 256
    backend: LMDB
  }
}
layer {
  name: "conv1"
  type: "Convolution"
  bottom: "image_left"
  top: "conv1"
  param {
    name: "conv1_w"
    lr_mult: 1
    decay_mult: 1
  }
  param {
    name: "conv1_b"
    lr_mult: 2
    decay_mult: 0
  }
  convolution_param {
    num_output: 72
    kernel_size: 11
    stride: 4
    weight_filler {
      type: "gaussian"
      std: 0.01
    }
    bias_filler {
      type: "constant"
      value: 0
    }
  }
}
layer {
  name: "relu1"
  type: "ReLU"
  bottom: "conv1"
  top: "conv1"
}
layer {
  name: "pool1"
  type: "Pooling"
  bottom: "conv1"
  top: "pool1"
  pooling_param {
    pool: MAX
    kernel_size: 3
    stride: 2
  }
}
layer {
  name: "norm1"
  type: "LRN"
  bottom: "pool1"
  top: "norm1"
  lrn_param {
    local_size: 5
    alpha: 0.0001
    beta: 0.75
  }
}
layer {
  name: "conv2"
  type: "Convolution"
  bottom: "norm1"
  top: "conv2"
  param {
    name: "conv2_w"
    lr_mult: 1
    decay_mult: 1
  }
  param {
    name: "conv2_b"
    lr_mult: 2
    decay_mult: 0
  }
  convolution_param {
    num_output: 192
    pad: 2
    kernel_size: 5
    group: 2
    weight_filler {
      type: "gaussian"
      std: 0.01
    }
    bias_filler {
      type: "constant"
      value: 1
    }
  }
}
layer {
  name: "relu2"
  type: "ReLU"
  bottom: "conv2"
  top: "conv2"
}
layer {
  name: "pool2"
  type: "Pooling"
  bottom: "conv2"
  top: "pool2"
  pooling_param {
    pool: MAX
    kernel_size: 3
    stride: 2
  }
}
layer {
  name: "norm2"
  type: "LRN"
  bottom: "pool2"
  top: "norm2"
  lrn_param {
    local_size: 5
    alpha: 0.0001
    beta: 0.75
  }
}
layer {
  name: "conv3"
  type: "Convolution"
  bottom: "norm2"
  top: "conv3"
  param {
    name: "conv3_w"
    lr_mult: 1
    decay_mult: 1
  }
  param {
    name: "conv3_b"
    lr_mult: 2
    decay_mult: 0
  }
  convolution_param {
    num_output: 288
    pad: 1
    kernel_size: 3
    weight_filler {
      type: "gaussian"
      std: 0.01
    }
    bias_filler {
      type: "constant"
      value: 0
    }
  }
}
layer {
  name: "relu3"
  type: "ReLU"
  bottom: "conv3"
  top: "conv3"
}
layer {
  name: "conv4_l"
  type: "Convolution"
  bottom: "conv3"
  top: "conv4_l"
  param {
    lr_mult: 1
    decay_mult: 1
  }
  param {
    lr_mult: 2
    decay_mult: 0
  }
  convolution_param {
    num_output: 64
    pad: 0
    kernel_size: 1
    weight_filler {
      type: "gaussian"
      std: 0.01
    }
    bias_filler {
      type: "constant"
      value: 0
    }
  }
}
layer {
  name: "relu4_l"
  type: "ReLU"
  bottom: "conv4_l"
  top: "conv4_l"
}
layer {
  name: "conv1_r"
  type: "Convolution"
  bottom: "image_right"
  top: "conv1_r"
  param {
    name: "conv1_w"
    lr_mult: 1
    decay_mult: 1
  }
  param {
    name: "conv1_b"
    lr_mult: 2
    decay_mult: 0
  }
  convolution_param {
    num_output: 72
    kernel_size: 11
    stride: 4
    weight_filler {
      type: "gaussian"
      std: 0.01
    }
    bias_filler {
      type: "constant"
      value: 0
    }
  }
}
layer {
  name: "relu1_r"
  type: "ReLU"
  bottom: "conv1_r"
  top: "conv1_r"
}
layer {
  name: "pool1_r"
  type: "Pooling"
  bottom: "conv1_r"
  top: "pool1_r"
  pooling_param {
    pool: MAX
    kernel_size: 3
    stride: 2
  }
}
layer {
  name: "norm1_r"
  type: "LRN"
  bottom: "pool1_r"
  top: "norm1_r"
  lrn_param {
    local_size: 5
    alpha: 0.0001
    beta: 0.75
  }
}
layer {
  name: "conv2_r"
  type: "Convolution"
  bottom: "norm1_r"
  top: "conv2_r"
  param {
    name: "conv2_w"
    lr_mult: 1
    decay_mult: 1
  }
  param {
    name: "conv2_b"
    lr_mult: 2
    decay_mult: 0
  }
  convolution_param {
    num_output: 192
    pad: 2
    kernel_size: 5
    group: 2
    weight_filler {
      type: "gaussian"
      std: 0.01
    }
    bias_filler {
      type: "constant"
      value: 1
    }
  }
}
layer {
  name: "relu2_r"
  type: "ReLU"
  bottom: "conv2_r"
  top: "conv2_r"
}
layer {
  name: "pool2_r"
  type: "Pooling"
  bottom: "conv2_r"
  top: "pool2_r"
  pooling_param {
    pool: MAX
    kernel_size: 3
    stride: 2
  }
}
layer {
  name: "norm2_r"
  type: "LRN"
  bottom: "pool2_r"
  top: "norm2_r"
  lrn_param {
    local_size: 5
    alpha: 0.0001
    beta: 0.75
  }
}
layer {
  name: "conv3_r"
  type: "Convolution"
  bottom: "norm2_r"
  top: "conv3_r"
  param {
    name: "conv3_w"
    lr_mult: 1
    decay_mult: 1
  }
  param {
    name: "conv3_b"
    lr_mult: 2
    decay_mult: 0
  }
  convolution_param {
    num_output: 288
    pad: 1
    kernel_size: 3
    weight_filler {
      type: "gaussian"
      std: 0.01
    }
    bias_filler {
      type: "constant"
      value: 0
    }
  }
}
layer {
  name: "relu3_r"
  type: "ReLU"
  bottom: "conv3_r"
  top: "conv3_r"
}
layer {
  name: "conv4_r"
  type: "Convolution"
  bottom: "conv3_r"
  top: "conv4_r"
  param {
    lr_mult: 1
    decay_mult: 1
  }
  param {
    lr_mult: 2
    decay_mult: 0
  }
  convolution_param {
    num_output: 64
    pad: 0
    kernel_size: 1
    weight_filler {
      type: "gaussian"
      std: 0.01
    }
    bias_filler {
      type: "constant"
      value: 0
    }
  }
}
layer {
  name: "relu4_r"
  type: "ReLU"
  bottom: "conv4_r"
  top: "conv4_r"
}
layer {
  name: "conv1_f"
  type: "Convolution"
  bottom: "image_face"
  top: "conv1_f"
  param {
    name: "conv1_f_w"
    lr_mult: 1
    decay_mult: 1
  }
  param {
    name: "conv1_f_b"
    lr_mult: 2
    decay_mult: 0
  }
  convolution_param {
    num_output: 72
    kernel_size: 11
    stride: 4
    weight_filler {
      type: "gaussian"
      std: 0.01
    }
    bias_filler {
      type: "constant"
      value: 0
    }
  }
}
layer {
  name: "relu1_f"
  type: "ReLU"
  bottom: "conv1_f"
  top: "conv1_f"
}
layer {
  name: "pool1_f"
  type: "Pooling"
  bottom: "conv1_f"
  top: "pool1_f"
  pooling_param {
    pool: MAX
    kernel_size: 3
    stride: 2
  }
}
layer {
  name: "norm1_f"
  type: "LRN"
  bottom: "pool1_f"
  top: "norm1_f"
  lrn_param {
    local_size: 5
    alpha: 0.0001
    beta: 0.75
  }
}
layer {
  name: "conv2_f"
  type: "Convolution"
  bottom: "norm1_f"
  top: "conv2_f"
  param {
    name: "conv2_f_w"
    lr_mult: 1
    decay_mult: 1
  }
  param {
    name: "conv2_f_b"
    lr_mult: 2
    decay_mult: 0
  }
  convolution_param {
    num_output: 192
    pad: 2
    kernel_size: 5
    group: 2
    weight_filler {
      type: "gaussian"
      std: 0.01
    }
    bias_filler {
      type: "constant"
      value: 1
    }
  }
}
layer {
  name: "relu2_f"
  type: "ReLU"
  bottom: "conv2_f"
  top: "conv2_f"
}
layer {
  name: "pool2_f"
  type: "Pooling"
  bottom: "conv2_f"
  top: "pool2_f"
  pooling_param {
    pool: MAX
    kernel_size: 3
    stride: 2
  }
}
layer {
  name: "norm2_f"
  type: "LRN"
  bottom: "pool2_f"
  top: "norm2_f"
  lrn_param {
    local_size: 5
    alpha: 0.0001
    beta: 0.75
  }
}
layer {
  name: "conv3_f"
  type: "Convolution"
  bottom: "norm2_f"
  top: "conv3_f"
  param {
    name: "conv3_f_w"
    lr_mult: 1
    decay_mult: 1
  }
  param {
    name: "conv3_f_b"
    lr_mult: 2
    decay_mult: 0
  }
  convolution_param {
    num_output: 288
    pad: 1
    kernel_size: 3
    weight_filler {
      type: "gaussian"
      std: 0.01
    }
    bias_filler {
      type: "constant"
      value: 0
    }
  }
}
layer {
  name: "relu3_f"
  type: "ReLU"
  bottom: "conv3_f"
  top: "conv3_f"
}
layer {
  name: "conv4_f"
  type: "Convolution"
  bottom: "conv3_f"
  top: "conv4_f"
  param {
    lr_mult: 1
    decay_mult: 1
  }
  param {
    lr_mult: 2
    decay_mult: 0
  }
  convolution_param {
    num_output: 64
    pad: 0
    kernel_size: 1
    weight_filler {
      type: "gaussian"
      std: 0.01
    }
    bias_filler {
      type: "constant"
      value: 0
    }
  }
}
layer {
  name: "relu4_f"
  type: "ReLU"
  bottom: "conv4_f"
  top: "conv4_f"
}
layer {
  name: "fc1_f"
  type: "InnerProduct"
  bottom: "conv4_f"
  top: "fc1_f"
  param {
    lr_mult: 1
  }
  param {
    lr_mult: 2
  }
  inner_product_param {
    num_output: 128
    weight_filler {
      type: "gaussian"
      std: 0.001
    }
    bias_filler {
      type: "constant"
      value: 1
    }
  }
}
layer {
  name: "relufc1_f"
  type: "ReLU"
  bottom: "fc1_f"
  top: "fc1_f"
}
layer {
  name: "fc2_f"
  type: "InnerProduct"
  bottom: "fc1_f"
  top: "fc2_f"
  param {
    lr_mult: 1
  }
  param {
    lr_mult: 2
  }
  inner_product_param {
    num_output: 64
    weight_filler {
      type: "gaussian"
      std: 0.001
    }
    bias_filler {
      type: "constant"
      value: 1
    }
  }
}
layer {
  name: "relufc2_f"
  type: "ReLU"
  bottom: "fc2_f"
  top: "fc2_f"
}
layer {
  name: "concat1"
  type: "Concat"
  bottom: "conv4_l"
  bottom: "conv4_r"
  top: "concat1"
  concat_param {
    axis: 1
  }
}
layer {
  name: "fc1"
  type: "InnerProduct"
  bottom: "concat1"
  top: "fc1"
  param {
    lr_mult: 1
  }
  param {
    lr_mult: 2
  }
  inner_product_param {
    num_output: 128
    weight_filler {
      type: "gaussian"
      std: 0.001
    }
    bias_filler {
      type: "constant"
      value: 1
    }
  }
}
layer {
  name: "relufc1"
  type: "ReLU"
  bottom: "fc1"
  top: "fc1"
}
layer {
  name: "flatten"
  type: "Flatten"
  bottom: "facegrid"
  top: "flatten"
}
layer {
  name: "fg_fc1"
  type: "InnerProduct"
  bottom: "flatten"
  top: "fg_fc1"
  param {
    lr_mult: 1
  }
  param {
    lr_mult: 2
  }
  inner_product_param {
    num_output: 256
    weight_filler {
      type: "gaussian"
      std: 0.001
    }
    bias_filler {
      type: "constant"
      value: 1
    }
  }
}
layer {
  name: "relufgfc1"
  type: "ReLU"
  bottom: "fg_fc1"
  top: "fg_fc1"
}
layer {
  name: "fg_fc2"
  type: "InnerProduct"
  bottom: "fg_fc1"
  top: "fg_fc2"
  param {
    lr_mult: 1
  }
  param {
    lr_mult: 2
  }
  inner_product_param {
    num_output: 128
    weight_filler {
      type: "gaussian"
      std: 0.001
    }
    bias_filler {
      type: "constant"
      value: 1
    }
  }
}
layer {
  name: "relufgfc2"
  type: "ReLU"
  bottom: "fg_fc2"
  top: "fg_fc2"
}
layer {
  name: "concat2"
  type: "Concat"
  bottom: "fc1"
  bottom: "fg_fc2"
  bottom: "fc2_f"
  top: "concat2"
  concat_param {
    axis: 1
  }
}
layer {
  name: "fc2"
  type: "InnerProduct"
  bottom: "concat2"
  top: "fc2"
  param {
    lr_mult: 1
  }
  param {
    lr_mult: 2
  }
  inner_product_param {
    num_output: 128
    weight_filler {
      type: "gaussian"
      std: 0.001
    }
    bias_filler {
      type: "constant"
      value: 1
    }
  }
}
layer {
  name: "relufc2"
  type: "ReLU"
  bottom: "fc2"
  top: "fc2"
}
layer {
  name: "penloss"
  type: "EuclideanLoss"
  bottom: "fc2"
  bottom: "pen"
  top: "penloss"
  loss_weight: 1
}
layer {
  name: "fc3"
  type: "InnerProduct"
  bottom: "fc2"
  top: "fc3"
  param {
    lr_mult: 1
  }
  param {
    lr_mult: 2
  }
  inner_product_param {
    num_output: 2
    weight_filler {
      type: "gaussian"
      std: 0.001
    }
    bias_filler {
      type: "constant"
      value: 0
    }
  }
}
layer {
  name: "trueloss"
  type: "EuclideanLoss"
  bottom: "fc3"
  bottom: "gaze"
  top: "trueloss"
  loss_weight: 1
}
layer {
  name: "predloss"
  type: "EuclideanLoss"
  bottom: "fc3"
  bottom: "gazepred"
  top: "predloss"
  loss_weight: 1
}
I0111 04:50:06.278643 20434 layer_factory.hpp:77] Creating layer itracker
I0111 04:50:06.278834 20434 db_lmdb.cpp:35] Opened lmdb lmdb/train_left_112_image_lmdb
I0111 04:50:06.278873 20434 net.cpp:84] Creating Layer itracker
I0111 04:50:06.279614 20434 net.cpp:380] itracker -> image_left
I0111 04:50:06.280714 20434 data_transformer.cpp:25] Loading mean file from: mean_images/mean_left_112.binaryproto
I0111 04:50:06.282580 20434 data_layer.cpp:45] output data size: 256,3,112,112
I0111 04:50:06.398892 20434 net.cpp:122] Setting up itracker
I0111 04:50:06.398962 20434 net.cpp:129] Top shape: 256 3 112 112 (9633792)
I0111 04:50:06.399024 20434 net.cpp:137] Memory required for data: 38535168
I0111 04:50:06.399045 20434 layer_factory.hpp:77] Creating layer itracker
I0111 04:50:06.399229 20434 db_lmdb.cpp:35] Opened lmdb lmdb/train_right_112_image_lmdb
I0111 04:50:06.399284 20434 net.cpp:84] Creating Layer itracker
I0111 04:50:06.399302 20434 net.cpp:380] itracker -> image_right
I0111 04:50:06.399338 20434 data_transformer.cpp:25] Loading mean file from: mean_images/mean_right_112.binaryproto
I0111 04:50:06.405377 20434 data_layer.cpp:45] output data size: 256,3,112,112
I0111 04:50:06.537421 20434 net.cpp:122] Setting up itracker
I0111 04:50:06.537509 20434 net.cpp:129] Top shape: 256 3 112 112 (9633792)
I0111 04:50:06.537520 20434 net.cpp:137] Memory required for data: 77070336
I0111 04:50:06.537528 20434 layer_factory.hpp:77] Creating layer itracker
I0111 04:50:06.537652 20434 db_lmdb.cpp:35] Opened lmdb lmdb/train_face_112_image_lmdb
I0111 04:50:06.537708 20434 net.cpp:84] Creating Layer itracker
I0111 04:50:06.537736 20434 net.cpp:380] itracker -> image_face
I0111 04:50:06.537767 20434 data_transformer.cpp:25] Loading mean file from: mean_images/mean_face_112.binaryproto
I0111 04:50:06.543635 20434 data_layer.cpp:45] output data size: 256,3,112,112
I0111 04:50:06.674471 20434 net.cpp:122] Setting up itracker
I0111 04:50:06.674540 20434 net.cpp:129] Top shape: 256 3 112 112 (9633792)
I0111 04:50:06.674551 20434 net.cpp:137] Memory required for data: 115605504
I0111 04:50:06.674607 20434 layer_factory.hpp:77] Creating layer itracker
I0111 04:50:06.674733 20434 db_lmdb.cpp:35] Opened lmdb lmdb/train_facegrid_lmdb
I0111 04:50:06.674767 20434 net.cpp:84] Creating Layer itracker
I0111 04:50:06.674793 20434 net.cpp:380] itracker -> facegrid
I0111 04:50:06.674957 20434 data_layer.cpp:45] output data size: 256,625,1,1
I0111 04:50:06.684135 20434 net.cpp:122] Setting up itracker
I0111 04:50:06.684177 20434 net.cpp:129] Top shape: 256 625 1 1 (160000)
I0111 04:50:06.684207 20434 net.cpp:137] Memory required for data: 116245504
I0111 04:50:06.684216 20434 layer_factory.hpp:77] Creating layer gaze
I0111 04:50:06.684363 20434 db_lmdb.cpp:35] Opened lmdb lmdb/train_gaze_lmdb
I0111 04:50:06.684414 20434 net.cpp:84] Creating Layer gaze
I0111 04:50:06.684512 20434 net.cpp:380] gaze -> gaze
I0111 04:50:06.684690 20434 data_layer.cpp:45] output data size: 256,2,1,1
I0111 04:50:06.686096 20434 net.cpp:122] Setting up gaze
I0111 04:50:06.686133 20434 net.cpp:129] Top shape: 256 2 1 1 (512)
I0111 04:50:06.686149 20434 net.cpp:137] Memory required for data: 116247552
I0111 04:50:06.686157 20434 layer_factory.hpp:77] Creating layer gazepred
I0111 04:50:06.686235 20434 db_lmdb.cpp:35] Opened lmdb lmdb/train_gazepred_lmdb
I0111 04:50:06.686285 20434 net.cpp:84] Creating Layer gazepred
I0111 04:50:06.686321 20434 net.cpp:380] gazepred -> gazepred
I0111 04:50:06.686563 20434 data_layer.cpp:45] output data size: 256,2,1,1
I0111 04:50:06.687067 20434 net.cpp:122] Setting up gazepred
I0111 04:50:06.687144 20434 net.cpp:129] Top shape: 256 2 1 1 (512)
I0111 04:50:06.687198 20434 net.cpp:137] Memory required for data: 116249600
I0111 04:50:06.687237 20434 layer_factory.hpp:77] Creating layer pen
I0111 04:50:06.687350 20434 db_lmdb.cpp:35] Opened lmdb lmdb/train_pen_lmdb
I0111 04:50:06.687419 20434 net.cpp:84] Creating Layer pen
I0111 04:50:06.687469 20434 net.cpp:380] pen -> pen
I0111 04:50:06.687758 20434 data_layer.cpp:45] output data size: 256,128,1,1
I0111 04:50:06.688804 20434 net.cpp:122] Setting up pen
I0111 04:50:06.688838 20434 net.cpp:129] Top shape: 256 128 1 1 (32768)
I0111 04:50:06.688875 20434 net.cpp:137] Memory required for data: 116380672
I0111 04:50:06.688894 20434 layer_factory.hpp:77] Creating layer conv1
I0111 04:50:06.688925 20434 net.cpp:84] Creating Layer conv1
I0111 04:50:06.688949 20434 net.cpp:406] conv1 <- image_left
I0111 04:50:06.688998 20434 net.cpp:380] conv1 -> conv1
I0111 04:50:08.331375 20434 net.cpp:122] Setting up conv1
I0111 04:50:08.331426 20434 net.cpp:129] Top shape: 256 72 26 26 (12460032)
I0111 04:50:08.331434 20434 net.cpp:137] Memory required for data: 166220800
I0111 04:50:08.331455 20434 layer_factory.hpp:77] Creating layer relu1
I0111 04:50:08.331467 20434 net.cpp:84] Creating Layer relu1
I0111 04:50:08.331472 20434 net.cpp:406] relu1 <- conv1
I0111 04:50:08.331478 20434 net.cpp:367] relu1 -> conv1 (in-place)
I0111 04:50:08.331878 20434 net.cpp:122] Setting up relu1
I0111 04:50:08.331904 20434 net.cpp:129] Top shape: 256 72 26 26 (12460032)
I0111 04:50:08.331912 20434 net.cpp:137] Memory required for data: 216060928
I0111 04:50:08.331917 20434 layer_factory.hpp:77] Creating layer pool1
I0111 04:50:08.331924 20434 net.cpp:84] Creating Layer pool1
I0111 04:50:08.331929 20434 net.cpp:406] pool1 <- conv1
I0111 04:50:08.331934 20434 net.cpp:380] pool1 -> pool1
I0111 04:50:08.333050 20434 net.cpp:122] Setting up pool1
I0111 04:50:08.333076 20434 net.cpp:129] Top shape: 256 72 13 13 (3115008)
I0111 04:50:08.333083 20434 net.cpp:137] Memory required for data: 228520960
I0111 04:50:08.333087 20434 layer_factory.hpp:77] Creating layer norm1
I0111 04:50:08.333097 20434 net.cpp:84] Creating Layer norm1
I0111 04:50:08.333101 20434 net.cpp:406] norm1 <- pool1
I0111 04:50:08.333107 20434 net.cpp:380] norm1 -> norm1
I0111 04:50:08.334455 20434 net.cpp:122] Setting up norm1
I0111 04:50:08.334484 20434 net.cpp:129] Top shape: 256 72 13 13 (3115008)
I0111 04:50:08.334491 20434 net.cpp:137] Memory required for data: 240980992
I0111 04:50:08.334517 20434 layer_factory.hpp:77] Creating layer conv2
I0111 04:50:08.334529 20434 net.cpp:84] Creating Layer conv2
I0111 04:50:08.334534 20434 net.cpp:406] conv2 <- norm1
I0111 04:50:08.334542 20434 net.cpp:380] conv2 -> conv2
I0111 04:50:08.341408 20434 net.cpp:122] Setting up conv2
I0111 04:50:08.341436 20434 net.cpp:129] Top shape: 256 192 13 13 (8306688)
I0111 04:50:08.341444 20434 net.cpp:137] Memory required for data: 274207744
I0111 04:50:08.341454 20434 layer_factory.hpp:77] Creating layer relu2
I0111 04:50:08.341459 20434 net.cpp:84] Creating Layer relu2
I0111 04:50:08.341464 20434 net.cpp:406] relu2 <- conv2
I0111 04:50:08.341470 20434 net.cpp:367] relu2 -> conv2 (in-place)
I0111 04:50:08.341773 20434 net.cpp:122] Setting up relu2
I0111 04:50:08.341785 20434 net.cpp:129] Top shape: 256 192 13 13 (8306688)
I0111 04:50:08.341789 20434 net.cpp:137] Memory required for data: 307434496
I0111 04:50:08.341792 20434 layer_factory.hpp:77] Creating layer pool2
I0111 04:50:08.341807 20434 net.cpp:84] Creating Layer pool2
I0111 04:50:08.341825 20434 net.cpp:406] pool2 <- conv2
I0111 04:50:08.341850 20434 net.cpp:380] pool2 -> pool2
I0111 04:50:08.341941 20434 net.cpp:122] Setting up pool2
I0111 04:50:08.341966 20434 net.cpp:129] Top shape: 256 192 6 6 (1769472)
I0111 04:50:08.341969 20434 net.cpp:137] Memory required for data: 314512384
I0111 04:50:08.341974 20434 layer_factory.hpp:77] Creating layer norm2
I0111 04:50:08.341984 20434 net.cpp:84] Creating Layer norm2
I0111 04:50:08.341989 20434 net.cpp:406] norm2 <- pool2
I0111 04:50:08.341996 20434 net.cpp:380] norm2 -> norm2
I0111 04:50:08.342456 20434 net.cpp:122] Setting up norm2
I0111 04:50:08.342488 20434 net.cpp:129] Top shape: 256 192 6 6 (1769472)
I0111 04:50:08.342494 20434 net.cpp:137] Memory required for data: 321590272
I0111 04:50:08.342499 20434 layer_factory.hpp:77] Creating layer conv3
I0111 04:50:08.342512 20434 net.cpp:84] Creating Layer conv3
I0111 04:50:08.342517 20434 net.cpp:406] conv3 <- norm2
I0111 04:50:08.342526 20434 net.cpp:380] conv3 -> conv3
I0111 04:50:08.349493 20434 net.cpp:122] Setting up conv3
I0111 04:50:08.349525 20434 net.cpp:129] Top shape: 256 288 6 6 (2654208)
I0111 04:50:08.349534 20434 net.cpp:137] Memory required for data: 332207104
I0111 04:50:08.349544 20434 layer_factory.hpp:77] Creating layer relu3
I0111 04:50:08.349552 20434 net.cpp:84] Creating Layer relu3
I0111 04:50:08.349556 20434 net.cpp:406] relu3 <- conv3
I0111 04:50:08.349561 20434 net.cpp:367] relu3 -> conv3 (in-place)
I0111 04:50:08.349855 20434 net.cpp:122] Setting up relu3
I0111 04:50:08.349874 20434 net.cpp:129] Top shape: 256 288 6 6 (2654208)
I0111 04:50:08.349877 20434 net.cpp:137] Memory required for data: 342823936
I0111 04:50:08.349882 20434 layer_factory.hpp:77] Creating layer conv4_l
I0111 04:50:08.349894 20434 net.cpp:84] Creating Layer conv4_l
I0111 04:50:08.349896 20434 net.cpp:406] conv4_l <- conv3
I0111 04:50:08.349902 20434 net.cpp:380] conv4_l -> conv4_l
I0111 04:50:08.351624 20434 net.cpp:122] Setting up conv4_l
I0111 04:50:08.351652 20434 net.cpp:129] Top shape: 256 64 6 6 (589824)
I0111 04:50:08.351660 20434 net.cpp:137] Memory required for data: 345183232
I0111 04:50:08.351678 20434 layer_factory.hpp:77] Creating layer relu4_l
I0111 04:50:08.351686 20434 net.cpp:84] Creating Layer relu4_l
I0111 04:50:08.351691 20434 net.cpp:406] relu4_l <- conv4_l
I0111 04:50:08.351696 20434 net.cpp:367] relu4_l -> conv4_l (in-place)
I0111 04:50:08.352126 20434 net.cpp:122] Setting up relu4_l
I0111 04:50:08.352154 20434 net.cpp:129] Top shape: 256 64 6 6 (589824)
I0111 04:50:08.352160 20434 net.cpp:137] Memory required for data: 347542528
I0111 04:50:08.352164 20434 layer_factory.hpp:77] Creating layer conv1_r
I0111 04:50:08.352180 20434 net.cpp:84] Creating Layer conv1_r
I0111 04:50:08.352183 20434 net.cpp:406] conv1_r <- image_right
I0111 04:50:08.352191 20434 net.cpp:380] conv1_r -> conv1_r
I0111 04:50:08.354048 20434 net.cpp:122] Setting up conv1_r
I0111 04:50:08.354079 20434 net.cpp:129] Top shape: 256 72 26 26 (12460032)
I0111 04:50:08.354085 20434 net.cpp:137] Memory required for data: 397382656
I0111 04:50:08.354105 20434 net.cpp:465] Sharing parameters 'conv1_w' owned by layer 'conv1', param index 0
I0111 04:50:08.354110 20434 net.cpp:465] Sharing parameters 'conv1_b' owned by layer 'conv1', param index 1
I0111 04:50:08.354113 20434 layer_factory.hpp:77] Creating layer relu1_r
I0111 04:50:08.354120 20434 net.cpp:84] Creating Layer relu1_r
I0111 04:50:08.354125 20434 net.cpp:406] relu1_r <- conv1_r
I0111 04:50:08.354131 20434 net.cpp:367] relu1_r -> conv1_r (in-place)
I0111 04:50:08.354570 20434 net.cpp:122] Setting up relu1_r
I0111 04:50:08.354599 20434 net.cpp:129] Top shape: 256 72 26 26 (12460032)
I0111 04:50:08.354606 20434 net.cpp:137] Memory required for data: 447222784
I0111 04:50:08.354610 20434 layer_factory.hpp:77] Creating layer pool1_r
I0111 04:50:08.354617 20434 net.cpp:84] Creating Layer pool1_r
I0111 04:50:08.354622 20434 net.cpp:406] pool1_r <- conv1_r
I0111 04:50:08.354630 20434 net.cpp:380] pool1_r -> pool1_r
I0111 04:50:08.354686 20434 net.cpp:122] Setting up pool1_r
I0111 04:50:08.354712 20434 net.cpp:129] Top shape: 256 72 13 13 (3115008)
I0111 04:50:08.354719 20434 net.cpp:137] Memory required for data: 459682816
I0111 04:50:08.354723 20434 layer_factory.hpp:77] Creating layer norm1_r
I0111 04:50:08.354732 20434 net.cpp:84] Creating Layer norm1_r
I0111 04:50:08.354737 20434 net.cpp:406] norm1_r <- pool1_r
I0111 04:50:08.354743 20434 net.cpp:380] norm1_r -> norm1_r
I0111 04:50:08.355114 20434 net.cpp:122] Setting up norm1_r
I0111 04:50:08.355141 20434 net.cpp:129] Top shape: 256 72 13 13 (3115008)
I0111 04:50:08.355149 20434 net.cpp:137] Memory required for data: 472142848
I0111 04:50:08.355152 20434 layer_factory.hpp:77] Creating layer conv2_r
I0111 04:50:08.355165 20434 net.cpp:84] Creating Layer conv2_r
I0111 04:50:08.355170 20434 net.cpp:406] conv2_r <- norm1_r
I0111 04:50:08.355180 20434 net.cpp:380] conv2_r -> conv2_r
I0111 04:50:08.359952 20434 net.cpp:122] Setting up conv2_r
I0111 04:50:08.359982 20434 net.cpp:129] Top shape: 256 192 13 13 (8306688)
I0111 04:50:08.359988 20434 net.cpp:137] Memory required for data: 505369600
I0111 04:50:08.359993 20434 net.cpp:465] Sharing parameters 'conv2_w' owned by layer 'conv2', param index 0
I0111 04:50:08.359998 20434 net.cpp:465] Sharing parameters 'conv2_b' owned by layer 'conv2', param index 1
I0111 04:50:08.360002 20434 layer_factory.hpp:77] Creating layer relu2_r
I0111 04:50:08.360008 20434 net.cpp:84] Creating Layer relu2_r
I0111 04:50:08.360013 20434 net.cpp:406] relu2_r <- conv2_r
I0111 04:50:08.360020 20434 net.cpp:367] relu2_r -> conv2_r (in-place)
I0111 04:50:08.360448 20434 net.cpp:122] Setting up relu2_r
I0111 04:50:08.360465 20434 net.cpp:129] Top shape: 256 192 13 13 (8306688)
I0111 04:50:08.360467 20434 net.cpp:137] Memory required for data: 538596352
I0111 04:50:08.360471 20434 layer_factory.hpp:77] Creating layer pool2_r
I0111 04:50:08.360481 20434 net.cpp:84] Creating Layer pool2_r
I0111 04:50:08.360484 20434 net.cpp:406] pool2_r <- conv2_r
I0111 04:50:08.360491 20434 net.cpp:380] pool2_r -> pool2_r
I0111 04:50:08.360543 20434 net.cpp:122] Setting up pool2_r
I0111 04:50:08.360564 20434 net.cpp:129] Top shape: 256 192 6 6 (1769472)
I0111 04:50:08.360571 20434 net.cpp:137] Memory required for data: 545674240
I0111 04:50:08.360574 20434 layer_factory.hpp:77] Creating layer norm2_r
I0111 04:50:08.360582 20434 net.cpp:84] Creating Layer norm2_r
I0111 04:50:08.360586 20434 net.cpp:406] norm2_r <- pool2_r
I0111 04:50:08.360594 20434 net.cpp:380] norm2_r -> norm2_r
I0111 04:50:08.360910 20434 net.cpp:122] Setting up norm2_r
I0111 04:50:08.360935 20434 net.cpp:129] Top shape: 256 192 6 6 (1769472)
I0111 04:50:08.360942 20434 net.cpp:137] Memory required for data: 552752128
I0111 04:50:08.360946 20434 layer_factory.hpp:77] Creating layer conv3_r
I0111 04:50:08.360960 20434 net.cpp:84] Creating Layer conv3_r
I0111 04:50:08.360965 20434 net.cpp:406] conv3_r <- norm2_r
I0111 04:50:08.360972 20434 net.cpp:380] conv3_r -> conv3_r
I0111 04:50:08.367882 20434 net.cpp:122] Setting up conv3_r
I0111 04:50:08.367924 20434 net.cpp:129] Top shape: 256 288 6 6 (2654208)
I0111 04:50:08.367933 20434 net.cpp:137] Memory required for data: 563368960
I0111 04:50:08.367938 20434 net.cpp:465] Sharing parameters 'conv3_w' owned by layer 'conv3', param index 0
I0111 04:50:08.367944 20434 net.cpp:465] Sharing parameters 'conv3_b' owned by layer 'conv3', param index 1
I0111 04:50:08.367946 20434 layer_factory.hpp:77] Creating layer relu3_r
I0111 04:50:08.367952 20434 net.cpp:84] Creating Layer relu3_r
I0111 04:50:08.367957 20434 net.cpp:406] relu3_r <- conv3_r
I0111 04:50:08.367965 20434 net.cpp:367] relu3_r -> conv3_r (in-place)
I0111 04:50:08.368399 20434 net.cpp:122] Setting up relu3_r
I0111 04:50:08.368427 20434 net.cpp:129] Top shape: 256 288 6 6 (2654208)
I0111 04:50:08.368434 20434 net.cpp:137] Memory required for data: 573985792
I0111 04:50:08.368438 20434 layer_factory.hpp:77] Creating layer conv4_r
I0111 04:50:08.368451 20434 net.cpp:84] Creating Layer conv4_r
I0111 04:50:08.368456 20434 net.cpp:406] conv4_r <- conv3_r
I0111 04:50:08.368465 20434 net.cpp:380] conv4_r -> conv4_r
I0111 04:50:08.370111 20434 net.cpp:122] Setting up conv4_r
I0111 04:50:08.370142 20434 net.cpp:129] Top shape: 256 64 6 6 (589824)
I0111 04:50:08.370149 20434 net.cpp:137] Memory required for data: 576345088
I0111 04:50:08.370158 20434 layer_factory.hpp:77] Creating layer relu4_r
I0111 04:50:08.370165 20434 net.cpp:84] Creating Layer relu4_r
I0111 04:50:08.370169 20434 net.cpp:406] relu4_r <- conv4_r
I0111 04:50:08.370174 20434 net.cpp:367] relu4_r -> conv4_r (in-place)
I0111 04:50:08.370612 20434 net.cpp:122] Setting up relu4_r
I0111 04:50:08.370642 20434 net.cpp:129] Top shape: 256 64 6 6 (589824)
I0111 04:50:08.370649 20434 net.cpp:137] Memory required for data: 578704384
I0111 04:50:08.370653 20434 layer_factory.hpp:77] Creating layer conv1_f
I0111 04:50:08.370667 20434 net.cpp:84] Creating Layer conv1_f
I0111 04:50:08.370672 20434 net.cpp:406] conv1_f <- image_face
I0111 04:50:08.370682 20434 net.cpp:380] conv1_f -> conv1_f
I0111 04:50:08.372447 20434 net.cpp:122] Setting up conv1_f
I0111 04:50:08.372479 20434 net.cpp:129] Top shape: 256 72 26 26 (12460032)
I0111 04:50:08.372486 20434 net.cpp:137] Memory required for data: 628544512
I0111 04:50:08.372495 20434 layer_factory.hpp:77] Creating layer relu1_f
I0111 04:50:08.372511 20434 net.cpp:84] Creating Layer relu1_f
I0111 04:50:08.372515 20434 net.cpp:406] relu1_f <- conv1_f
I0111 04:50:08.372521 20434 net.cpp:367] relu1_f -> conv1_f (in-place)
I0111 04:50:08.372807 20434 net.cpp:122] Setting up relu1_f
I0111 04:50:08.372833 20434 net.cpp:129] Top shape: 256 72 26 26 (12460032)
I0111 04:50:08.372839 20434 net.cpp:137] Memory required for data: 678384640
I0111 04:50:08.372843 20434 layer_factory.hpp:77] Creating layer pool1_f
I0111 04:50:08.372849 20434 net.cpp:84] Creating Layer pool1_f
I0111 04:50:08.372854 20434 net.cpp:406] pool1_f <- conv1_f
I0111 04:50:08.372864 20434 net.cpp:380] pool1_f -> pool1_f
I0111 04:50:08.372917 20434 net.cpp:122] Setting up pool1_f
I0111 04:50:08.372938 20434 net.cpp:129] Top shape: 256 72 13 13 (3115008)
I0111 04:50:08.372946 20434 net.cpp:137] Memory required for data: 690844672
I0111 04:50:08.372949 20434 layer_factory.hpp:77] Creating layer norm1_f
I0111 04:50:08.372961 20434 net.cpp:84] Creating Layer norm1_f
I0111 04:50:08.372967 20434 net.cpp:406] norm1_f <- pool1_f
I0111 04:50:08.372972 20434 net.cpp:380] norm1_f -> norm1_f
I0111 04:50:08.373466 20434 net.cpp:122] Setting up norm1_f
I0111 04:50:08.373492 20434 net.cpp:129] Top shape: 256 72 13 13 (3115008)
I0111 04:50:08.373499 20434 net.cpp:137] Memory required for data: 703304704
I0111 04:50:08.373503 20434 layer_factory.hpp:77] Creating layer conv2_f
I0111 04:50:08.373514 20434 net.cpp:84] Creating Layer conv2_f
I0111 04:50:08.373518 20434 net.cpp:406] conv2_f <- norm1_f
I0111 04:50:08.373528 20434 net.cpp:380] conv2_f -> conv2_f
I0111 04:50:08.378312 20434 net.cpp:122] Setting up conv2_f
I0111 04:50:08.378342 20434 net.cpp:129] Top shape: 256 192 13 13 (8306688)
I0111 04:50:08.378348 20434 net.cpp:137] Memory required for data: 736531456
I0111 04:50:08.378367 20434 layer_factory.hpp:77] Creating layer relu2_f
I0111 04:50:08.378374 20434 net.cpp:84] Creating Layer relu2_f
I0111 04:50:08.378379 20434 net.cpp:406] relu2_f <- conv2_f
I0111 04:50:08.378386 20434 net.cpp:367] relu2_f -> conv2_f (in-place)
I0111 04:50:08.378684 20434 net.cpp:122] Setting up relu2_f
I0111 04:50:08.378710 20434 net.cpp:129] Top shape: 256 192 13 13 (8306688)
I0111 04:50:08.378716 20434 net.cpp:137] Memory required for data: 769758208
I0111 04:50:08.378720 20434 layer_factory.hpp:77] Creating layer pool2_f
I0111 04:50:08.378729 20434 net.cpp:84] Creating Layer pool2_f
I0111 04:50:08.378733 20434 net.cpp:406] pool2_f <- conv2_f
I0111 04:50:08.378741 20434 net.cpp:380] pool2_f -> pool2_f
I0111 04:50:08.378798 20434 net.cpp:122] Setting up pool2_f
I0111 04:50:08.378829 20434 net.cpp:129] Top shape: 256 192 6 6 (1769472)
I0111 04:50:08.378849 20434 net.cpp:137] Memory required for data: 776836096
I0111 04:50:08.378860 20434 layer_factory.hpp:77] Creating layer norm2_f
I0111 04:50:08.378878 20434 net.cpp:84] Creating Layer norm2_f
I0111 04:50:08.378890 20434 net.cpp:406] norm2_f <- pool2_f
I0111 04:50:08.378909 20434 net.cpp:380] norm2_f -> norm2_f
I0111 04:50:08.379597 20434 net.cpp:122] Setting up norm2_f
I0111 04:50:08.379636 20434 net.cpp:129] Top shape: 256 192 6 6 (1769472)
I0111 04:50:08.379653 20434 net.cpp:137] Memory required for data: 783913984
I0111 04:50:08.379667 20434 layer_factory.hpp:77] Creating layer conv3_f
I0111 04:50:08.379691 20434 net.cpp:84] Creating Layer conv3_f
I0111 04:50:08.379705 20434 net.cpp:406] conv3_f <- norm2_f
I0111 04:50:08.379736 20434 net.cpp:380] conv3_f -> conv3_f
I0111 04:50:08.386724 20434 net.cpp:122] Setting up conv3_f
I0111 04:50:08.386764 20434 net.cpp:129] Top shape: 256 288 6 6 (2654208)
I0111 04:50:08.386781 20434 net.cpp:137] Memory required for data: 794530816
I0111 04:50:08.386799 20434 layer_factory.hpp:77] Creating layer relu3_f
I0111 04:50:08.386814 20434 net.cpp:84] Creating Layer relu3_f
I0111 04:50:08.386831 20434 net.cpp:406] relu3_f <- conv3_f
I0111 04:50:08.386859 20434 net.cpp:367] relu3_f -> conv3_f (in-place)
I0111 04:50:08.387451 20434 net.cpp:122] Setting up relu3_f
I0111 04:50:08.387490 20434 net.cpp:129] Top shape: 256 288 6 6 (2654208)
I0111 04:50:08.387507 20434 net.cpp:137] Memory required for data: 805147648
I0111 04:50:08.387521 20434 layer_factory.hpp:77] Creating layer conv4_f
I0111 04:50:08.387550 20434 net.cpp:84] Creating Layer conv4_f
I0111 04:50:08.387584 20434 net.cpp:406] conv4_f <- conv3_f
I0111 04:50:08.387619 20434 net.cpp:380] conv4_f -> conv4_f
I0111 04:50:08.389320 20434 net.cpp:122] Setting up conv4_f
I0111 04:50:08.389358 20434 net.cpp:129] Top shape: 256 64 6 6 (589824)
I0111 04:50:08.389376 20434 net.cpp:137] Memory required for data: 807506944
I0111 04:50:08.389400 20434 layer_factory.hpp:77] Creating layer relu4_f
I0111 04:50:08.389433 20434 net.cpp:84] Creating Layer relu4_f
I0111 04:50:08.389452 20434 net.cpp:406] relu4_f <- conv4_f
I0111 04:50:08.389472 20434 net.cpp:367] relu4_f -> conv4_f (in-place)
I0111 04:50:08.389827 20434 net.cpp:122] Setting up relu4_f
I0111 04:50:08.389868 20434 net.cpp:129] Top shape: 256 64 6 6 (589824)
I0111 04:50:08.389884 20434 net.cpp:137] Memory required for data: 809866240
I0111 04:50:08.389899 20434 layer_factory.hpp:77] Creating layer fc1_f
I0111 04:50:08.389919 20434 net.cpp:84] Creating Layer fc1_f
I0111 04:50:08.389953 20434 net.cpp:406] fc1_f <- conv4_f
I0111 04:50:08.389983 20434 net.cpp:380] fc1_f -> fc1_f
I0111 04:50:08.393453 20434 net.cpp:122] Setting up fc1_f
I0111 04:50:08.393491 20434 net.cpp:129] Top shape: 256 128 (32768)
I0111 04:50:08.393507 20434 net.cpp:137] Memory required for data: 809997312
I0111 04:50:08.393528 20434 layer_factory.hpp:77] Creating layer relufc1_f
I0111 04:50:08.393546 20434 net.cpp:84] Creating Layer relufc1_f
I0111 04:50:08.393575 20434 net.cpp:406] relufc1_f <- fc1_f
I0111 04:50:08.393599 20434 net.cpp:367] relufc1_f -> fc1_f (in-place)
I0111 04:50:08.394064 20434 net.cpp:122] Setting up relufc1_f
I0111 04:50:08.394112 20434 net.cpp:129] Top shape: 256 128 (32768)
I0111 04:50:08.394127 20434 net.cpp:137] Memory required for data: 810128384
I0111 04:50:08.394138 20434 layer_factory.hpp:77] Creating layer fc2_f
I0111 04:50:08.394155 20434 net.cpp:84] Creating Layer fc2_f
I0111 04:50:08.394184 20434 net.cpp:406] fc2_f <- fc1_f
I0111 04:50:08.394208 20434 net.cpp:380] fc2_f -> fc2_f
I0111 04:50:08.395190 20434 net.cpp:122] Setting up fc2_f
I0111 04:50:08.395228 20434 net.cpp:129] Top shape: 256 64 (16384)
I0111 04:50:08.395243 20434 net.cpp:137] Memory required for data: 810193920
I0111 04:50:08.395264 20434 layer_factory.hpp:77] Creating layer relufc2_f
I0111 04:50:08.395290 20434 net.cpp:84] Creating Layer relufc2_f
I0111 04:50:08.395305 20434 net.cpp:406] relufc2_f <- fc2_f
I0111 04:50:08.395321 20434 net.cpp:367] relufc2_f -> fc2_f (in-place)
I0111 04:50:08.395687 20434 net.cpp:122] Setting up relufc2_f
I0111 04:50:08.395730 20434 net.cpp:129] Top shape: 256 64 (16384)
I0111 04:50:08.395741 20434 net.cpp:137] Memory required for data: 810259456
I0111 04:50:08.395756 20434 layer_factory.hpp:77] Creating layer concat1
I0111 04:50:08.395779 20434 net.cpp:84] Creating Layer concat1
I0111 04:50:08.395794 20434 net.cpp:406] concat1 <- conv4_l
I0111 04:50:08.395807 20434 net.cpp:406] concat1 <- conv4_r
I0111 04:50:08.395828 20434 net.cpp:380] concat1 -> concat1
I0111 04:50:08.395897 20434 net.cpp:122] Setting up concat1
I0111 04:50:08.395933 20434 net.cpp:129] Top shape: 256 128 6 6 (1179648)
I0111 04:50:08.395948 20434 net.cpp:137] Memory required for data: 814978048
I0111 04:50:08.395963 20434 layer_factory.hpp:77] Creating layer fc1
I0111 04:50:08.395990 20434 net.cpp:84] Creating Layer fc1
I0111 04:50:08.396006 20434 net.cpp:406] fc1 <- concat1
I0111 04:50:08.396030 20434 net.cpp:380] fc1 -> fc1
I0111 04:50:08.402964 20434 net.cpp:122] Setting up fc1
I0111 04:50:08.403028 20434 net.cpp:129] Top shape: 256 128 (32768)
I0111 04:50:08.403043 20434 net.cpp:137] Memory required for data: 815109120
I0111 04:50:08.403061 20434 layer_factory.hpp:77] Creating layer relufc1
I0111 04:50:08.403076 20434 net.cpp:84] Creating Layer relufc1
I0111 04:50:08.403113 20434 net.cpp:406] relufc1 <- fc1
I0111 04:50:08.403141 20434 net.cpp:367] relufc1 -> fc1 (in-place)
I0111 04:50:08.403609 20434 net.cpp:122] Setting up relufc1
I0111 04:50:08.403651 20434 net.cpp:129] Top shape: 256 128 (32768)
I0111 04:50:08.403664 20434 net.cpp:137] Memory required for data: 815240192
I0111 04:50:08.403677 20434 layer_factory.hpp:77] Creating layer flatten
I0111 04:50:08.403688 20434 net.cpp:84] Creating Layer flatten
I0111 04:50:08.403707 20434 net.cpp:406] flatten <- facegrid
I0111 04:50:08.403725 20434 net.cpp:380] flatten -> flatten
I0111 04:50:08.403805 20434 net.cpp:122] Setting up flatten
I0111 04:50:08.403841 20434 net.cpp:129] Top shape: 256 625 (160000)
I0111 04:50:08.403856 20434 net.cpp:137] Memory required for data: 815880192
I0111 04:50:08.403870 20434 layer_factory.hpp:77] Creating layer fg_fc1
I0111 04:50:08.403892 20434 net.cpp:84] Creating Layer fg_fc1
I0111 04:50:08.403921 20434 net.cpp:406] fg_fc1 <- flatten
I0111 04:50:08.403949 20434 net.cpp:380] fg_fc1 -> fg_fc1
I0111 04:50:08.406107 20434 net.cpp:122] Setting up fg_fc1
I0111 04:50:08.406141 20434 net.cpp:129] Top shape: 256 256 (65536)
I0111 04:50:08.406157 20434 net.cpp:137] Memory required for data: 816142336
I0111 04:50:08.406178 20434 layer_factory.hpp:77] Creating layer relufgfc1
I0111 04:50:08.406209 20434 net.cpp:84] Creating Layer relufgfc1
I0111 04:50:08.406225 20434 net.cpp:406] relufgfc1 <- fg_fc1
I0111 04:50:08.406239 20434 net.cpp:367] relufgfc1 -> fg_fc1 (in-place)
I0111 04:50:08.406716 20434 net.cpp:122] Setting up relufgfc1
I0111 04:50:08.406749 20434 net.cpp:129] Top shape: 256 256 (65536)
I0111 04:50:08.406766 20434 net.cpp:137] Memory required for data: 816404480
I0111 04:50:08.406780 20434 layer_factory.hpp:77] Creating layer fg_fc2
I0111 04:50:08.406800 20434 net.cpp:84] Creating Layer fg_fc2
I0111 04:50:08.406817 20434 net.cpp:406] fg_fc2 <- fg_fc1
I0111 04:50:08.406853 20434 net.cpp:380] fg_fc2 -> fg_fc2
I0111 04:50:08.407421 20434 net.cpp:122] Setting up fg_fc2
I0111 04:50:08.407454 20434 net.cpp:129] Top shape: 256 128 (32768)
I0111 04:50:08.407472 20434 net.cpp:137] Memory required for data: 816535552
I0111 04:50:08.407506 20434 layer_factory.hpp:77] Creating layer relufgfc2
I0111 04:50:08.407549 20434 net.cpp:84] Creating Layer relufgfc2
I0111 04:50:08.407567 20434 net.cpp:406] relufgfc2 <- fg_fc2
I0111 04:50:08.407582 20434 net.cpp:367] relufgfc2 -> fg_fc2 (in-place)
I0111 04:50:08.407917 20434 net.cpp:122] Setting up relufgfc2
I0111 04:50:08.407961 20434 net.cpp:129] Top shape: 256 128 (32768)
I0111 04:50:08.407974 20434 net.cpp:137] Memory required for data: 816666624
I0111 04:50:08.407987 20434 layer_factory.hpp:77] Creating layer concat2
I0111 04:50:08.408006 20434 net.cpp:84] Creating Layer concat2
I0111 04:50:08.408035 20434 net.cpp:406] concat2 <- fc1
I0111 04:50:08.408058 20434 net.cpp:406] concat2 <- fg_fc2
I0111 04:50:08.408073 20434 net.cpp:406] concat2 <- fc2_f
I0111 04:50:08.408097 20434 net.cpp:380] concat2 -> concat2
I0111 04:50:08.408161 20434 net.cpp:122] Setting up concat2
I0111 04:50:08.408195 20434 net.cpp:129] Top shape: 256 320 (81920)
I0111 04:50:08.408211 20434 net.cpp:137] Memory required for data: 816994304
I0111 04:50:08.408226 20434 layer_factory.hpp:77] Creating layer fc2
I0111 04:50:08.408246 20434 net.cpp:84] Creating Layer fc2
I0111 04:50:08.408277 20434 net.cpp:406] fc2 <- concat2
I0111 04:50:08.408309 20434 net.cpp:380] fc2 -> fc2
I0111 04:50:08.408871 20434 net.cpp:122] Setting up fc2
I0111 04:50:08.408903 20434 net.cpp:129] Top shape: 256 128 (32768)
I0111 04:50:08.408921 20434 net.cpp:137] Memory required for data: 817125376
I0111 04:50:08.408942 20434 layer_factory.hpp:77] Creating layer relufc2
I0111 04:50:08.408964 20434 net.cpp:84] Creating Layer relufc2
I0111 04:50:08.408979 20434 net.cpp:406] relufc2 <- fc2
I0111 04:50:08.408999 20434 net.cpp:367] relufc2 -> fc2 (in-place)
I0111 04:50:08.409499 20434 net.cpp:122] Setting up relufc2
I0111 04:50:08.409541 20434 net.cpp:129] Top shape: 256 128 (32768)
I0111 04:50:08.409554 20434 net.cpp:137] Memory required for data: 817256448
I0111 04:50:08.409567 20434 layer_factory.hpp:77] Creating layer fc2_relufc2_0_split
I0111 04:50:08.409595 20434 net.cpp:84] Creating Layer fc2_relufc2_0_split
I0111 04:50:08.409623 20434 net.cpp:406] fc2_relufc2_0_split <- fc2
I0111 04:50:08.409652 20434 net.cpp:380] fc2_relufc2_0_split -> fc2_relufc2_0_split_0
I0111 04:50:08.409677 20434 net.cpp:380] fc2_relufc2_0_split -> fc2_relufc2_0_split_1
I0111 04:50:08.409796 20434 net.cpp:122] Setting up fc2_relufc2_0_split
I0111 04:50:08.409828 20434 net.cpp:129] Top shape: 256 128 (32768)
I0111 04:50:08.409848 20434 net.cpp:129] Top shape: 256 128 (32768)
I0111 04:50:08.409857 20434 net.cpp:137] Memory required for data: 817518592
I0111 04:50:08.409863 20434 layer_factory.hpp:77] Creating layer penloss
I0111 04:50:08.410821 20434 net.cpp:84] Creating Layer penloss
I0111 04:50:08.410850 20434 net.cpp:406] penloss <- fc2_relufc2_0_split_0
I0111 04:50:08.410871 20434 net.cpp:406] penloss <- pen
I0111 04:50:08.410892 20434 net.cpp:380] penloss -> penloss
I0111 04:50:08.411020 20434 net.cpp:122] Setting up penloss
I0111 04:50:08.411051 20434 net.cpp:129] Top shape: (1)
I0111 04:50:08.411068 20434 net.cpp:132]     with loss weight 1
I0111 04:50:08.411134 20434 net.cpp:137] Memory required for data: 817518596
I0111 04:50:08.411151 20434 layer_factory.hpp:77] Creating layer fc3
I0111 04:50:08.411176 20434 net.cpp:84] Creating Layer fc3
I0111 04:50:08.411226 20434 net.cpp:406] fc3 <- fc2_relufc2_0_split_1
I0111 04:50:08.411269 20434 net.cpp:380] fc3 -> fc3
I0111 04:50:08.411464 20434 net.cpp:122] Setting up fc3
I0111 04:50:08.411516 20434 net.cpp:129] Top shape: 256 2 (512)
I0111 04:50:08.411545 20434 net.cpp:137] Memory required for data: 817520644
I0111 04:50:08.411574 20434 layer_factory.hpp:77] Creating layer fc3_fc3_0_split
I0111 04:50:08.411589 20434 net.cpp:84] Creating Layer fc3_fc3_0_split
I0111 04:50:08.411623 20434 net.cpp:406] fc3_fc3_0_split <- fc3
I0111 04:50:08.411644 20434 net.cpp:380] fc3_fc3_0_split -> fc3_fc3_0_split_0
I0111 04:50:08.411660 20434 net.cpp:380] fc3_fc3_0_split -> fc3_fc3_0_split_1
I0111 04:50:08.411752 20434 net.cpp:122] Setting up fc3_fc3_0_split
I0111 04:50:08.411783 20434 net.cpp:129] Top shape: 256 2 (512)
I0111 04:50:08.411804 20434 net.cpp:129] Top shape: 256 2 (512)
I0111 04:50:08.411813 20434 net.cpp:137] Memory required for data: 817524740
I0111 04:50:08.411818 20434 layer_factory.hpp:77] Creating layer trueloss
I0111 04:50:08.411833 20434 net.cpp:84] Creating Layer trueloss
I0111 04:50:08.411840 20434 net.cpp:406] trueloss <- fc3_fc3_0_split_0
I0111 04:50:08.411849 20434 net.cpp:406] trueloss <- gaze
I0111 04:50:08.411857 20434 net.cpp:380] trueloss -> trueloss
…
