…
    backend: LMDB
  }
}
layer {
  name: "gaze"
  type: "Data"
  top: "gaze"
  include {
    phase: TRAIN
  }
  data_param {
    source: "lmdb/train_gaze_lmdb"
    batch_size: 256
    backend: LMDB
  }
}
layer {
  name: "gazepred"
  type: "Data"
  top: "gazepred"
  include {
    phase: TRAIN
  }
  data_param {
    source: "lmdb/train_gazepred_lmdb"
    batch_size: 256
    backend: LMDB
  }
}
layer {
  name: "pen"
  type: "Data"
  top: "pen"
  include {
    phase: TRAIN
  }
  data_param {
    source: "lmdb/train_pen_lmdb"
    batch_size: 256
    backend: LMDB
  }
}
layer {
  name: "conv1"
  type: "Convolution"
  bottom: "image_left"
  top: "conv1"
  param {
    name: "conv1_w"
    lr_mult: 1
    decay_mult: 1
  }
  param {
    name: "conv1_b"
    lr_mult: 2
    decay_mult: 0
  }
  convolution_param {
    num_output: 72
    kernel_size: 11
    stride: 4
    weight_filler {
      type: "gaussian"
      std: 0.01
    }
    bias_filler {
      type: "constant"
      value: 0
    }
  }
}
layer {
  name: "relu1"
  type: "ReLU"
  bottom: "conv1"
  top: "conv1"
}
layer {
  name: "pool1"
  type: "Pooling"
  bottom: "conv1"
  top: "pool1"
  pooling_param {
    pool: MAX
    kernel_size: 3
    stride: 2
  }
}
layer {
  name: "norm1"
  type: "LRN"
  bottom: "pool1"
  top: "norm1"
  lrn_param {
    local_size: 5
    alpha: 0.0001
    beta: 0.75
  }
}
layer {
  name: "conv2"
  type: "Convolution"
  bottom: "norm1"
  top: "conv2"
  param {
    name: "conv2_w"
    lr_mult: 1
    decay_mult: 1
  }
  param {
    name: "conv2_b"
    lr_mult: 2
    decay_mult: 0
  }
  convolution_param {
    num_output: 192
    pad: 2
    kernel_size: 5
    group: 2
    weight_filler {
      type: "gaussian"
      std: 0.01
    }
    bias_filler {
      type: "constant"
      value: 1
    }
  }
}
layer {
  name: "relu2"
  type: "ReLU"
  bottom: "conv2"
  top: "conv2"
}
layer {
  name: "pool2"
  type: "Pooling"
  bottom: "conv2"
  top: "pool2"
  pooling_param {
    pool: MAX
    kernel_size: 3
    stride: 2
  }
}
layer {
  name: "norm2"
  type: "LRN"
  bottom: "pool2"
  top: "norm2"
  lrn_param {
    local_size: 5
    alpha: 0.0001
    beta: 0.75
  }
}
layer {
  name: "conv3"
  type: "Convolution"
  bottom: "norm2"
  top: "conv3"
  param {
    name: "conv3_w"
    lr_mult: 1
    decay_mult: 1
  }
  param {
    name: "conv3_b"
    lr_mult: 2
    decay_mult: 0
  }
  convolution_param {
    num_output: 288
    pad: 1
    kernel_size: 3
    weight_filler {
      type: "gaussian"
      std: 0.01
    }
    bias_filler {
      type: "constant"
      value: 0
    }
  }
}
layer {
  name: "relu3"
  type: "ReLU"
  bottom: "conv3"
  top: "conv3"
}
layer {
  name: "conv4_l"
  type: "Convolution"
  bottom: "conv3"
  top: "conv4_l"
  param {
    lr_mult: 1
    decay_mult: 1
  }
  param {
    lr_mult: 2
    decay_mult: 0
  }
  convolution_param {
    num_output: 64
    pad: 0
    kernel_size: 1
    weight_filler {
      type: "gaussian"
      std: 0.01
    }
    bias_filler {
      type: "constant"
      value: 0
    }
  }
}
layer {
  name: "relu4_l"
  type: "ReLU"
  bottom: "conv4_l"
  top: "conv4_l"
}
layer {
  name: "conv1_r"
  type: "Convolution"
  bottom: "image_right"
  top: "conv1_r"
  param {
    name: "conv1_w"
    lr_mult: 1
    decay_mult: 1
  }
  param {
    name: "conv1_b"
    lr_mult: 2
    decay_mult: 0
  }
  convolution_param {
    num_output: 72
    kernel_size: 11
    stride: 4
    weight_filler {
      type: "gaussian"
      std: 0.01
    }
    bias_filler {
      type: "constant"
      value: 0
    }
  }
}
layer {
  name: "relu1_r"
  type: "ReLU"
  bottom: "conv1_r"
  top: "conv1_r"
}
layer {
  name: "pool1_r"
  type: "Pooling"
  bottom: "conv1_r"
  top: "pool1_r"
  pooling_param {
    pool: MAX
    kernel_size: 3
    stride: 2
  }
}
layer {
  name: "norm1_r"
  type: "LRN"
  bottom: "pool1_r"
  top: "norm1_r"
  lrn_param {
    local_size: 5
    alpha: 0.0001
    beta: 0.75
  }
}
layer {
  name: "conv2_r"
  type: "Convolution"
  bottom: "norm1_r"
  top: "conv2_r"
  param {
    name: "conv2_w"
    lr_mult: 1
    decay_mult: 1
  }
  param {
    name: "conv2_b"
    lr_mult: 2
    decay_mult: 0
  }
  convolution_param {
    num_output: 192
    pad: 2
    kernel_size: 5
    group: 2
    weight_filler {
      type: "gaussian"
      std: 0.01
    }
    bias_filler {
      type: "constant"
      value: 1
    }
  }
}
layer {
  name: "relu2_r"
  type: "ReLU"
  bottom: "conv2_r"
  top: "conv2_r"
}
layer {
  name: "pool2_r"
  type: "Pooling"
  bottom: "conv2_r"
  top: "pool2_r"
  pooling_param {
    pool: MAX
    kernel_size: 3
    stride: 2
  }
}
layer {
  name: "norm2_r"
  type: "LRN"
  bottom: "pool2_r"
  top: "norm2_r"
  lrn_param {
    local_size: 5
    alpha: 0.0001
    beta: 0.75
  }
}
layer {
  name: "conv3_r"
  type: "Convolution"
  bottom: "norm2_r"
  top: "conv3_r"
  param {
    name: "conv3_w"
    lr_mult: 1
    decay_mult: 1
  }
  param {
    name: "conv3_b"
    lr_mult: 2
    decay_mult: 0
  }
  convolution_param {
    num_output: 288
    pad: 1
    kernel_size: 3
    weight_filler {
      type: "gaussian"
      std: 0.01
    }
    bias_filler {
      type: "constant"
      value: 0
    }
  }
}
layer {
  name: "relu3_r"
  type: "ReLU"
  bottom: "conv3_r"
  top: "conv3_r"
}
layer {
  name: "conv4_r"
  type: "Convolution"
  bottom: "conv3_r"
  top: "conv4_r"
  param {
    lr_mult: 1
    decay_mult: 1
  }
  param {
    lr_mult: 2
    decay_mult: 0
  }
  convolution_param {
    num_output: 64
    pad: 0
    kernel_size: 1
    weight_filler {
      type: "gaussian"
      std: 0.01
    }
    bias_filler {
      type: "constant"
      value: 0
    }
  }
}
layer {
  name: "relu4_r"
  type: "ReLU"
  bottom: "conv4_r"
  top: "conv4_r"
}
layer {
  name: "conv1_f"
  type: "Convolution"
  bottom: "image_face"
  top: "conv1_f"
  param {
    name: "conv1_f_w"
    lr_mult: 1
    decay_mult: 1
  }
  param {
    name: "conv1_f_b"
    lr_mult: 2
    decay_mult: 0
  }
  convolution_param {
    num_output: 72
    kernel_size: 11
    stride: 4
    weight_filler {
      type: "gaussian"
      std: 0.01
    }
    bias_filler {
      type: "constant"
      value: 0
    }
  }
}
layer {
  name: "relu1_f"
  type: "ReLU"
  bottom: "conv1_f"
  top: "conv1_f"
}
layer {
  name: "pool1_f"
  type: "Pooling"
  bottom: "conv1_f"
  top: "pool1_f"
  pooling_param {
    pool: MAX
    kernel_size: 3
    stride: 2
  }
}
layer {
  name: "norm1_f"
  type: "LRN"
  bottom: "pool1_f"
  top: "norm1_f"
  lrn_param {
    local_size: 5
    alpha: 0.0001
    beta: 0.75
  }
}
layer {
  name: "conv2_f"
  type: "Convolution"
  bottom: "norm1_f"
  top: "conv2_f"
  param {
    name: "conv2_f_w"
    lr_mult: 1
    decay_mult: 1
  }
  param {
    name: "conv2_f_b"
    lr_mult: 2
    decay_mult: 0
  }
  convolution_param {
    num_output: 192
    pad: 2
    kernel_size: 5
    group: 2
    weight_filler {
      type: "gaussian"
      std: 0.01
    }
    bias_filler {
      type: "constant"
      value: 1
    }
  }
}
layer {
  name: "relu2_f"
  type: "ReLU"
  bottom: "conv2_f"
  top: "conv2_f"
}
layer {
  name: "pool2_f"
  type: "Pooling"
  bottom: "conv2_f"
  top: "pool2_f"
  pooling_param {
    pool: MAX
    kernel_size: 3
    stride: 2
  }
}
layer {
  name: "norm2_f"
  type: "LRN"
  bottom: "pool2_f"
  top: "norm2_f"
  lrn_param {
    local_size: 5
    alpha: 0.0001
    beta: 0.75
  }
}
layer {
  name: "conv3_f"
  type: "Convolution"
  bottom: "norm2_f"
  top: "conv3_f"
  param {
    name: "conv3_f_w"
    lr_mult: 1
    decay_mult: 1
  }
  param {
    name: "conv3_f_b"
    lr_mult: 2
    decay_mult: 0
  }
  convolution_param {
    num_output: 288
    pad: 1
    kernel_size: 3
    weight_filler {
      type: "gaussian"
      std: 0.01
    }
    bias_filler {
      type: "constant"
      value: 0
    }
  }
}
layer {
  name: "relu3_f"
  type: "ReLU"
  bottom: "conv3_f"
  top: "conv3_f"
}
layer {
  name: "conv4_f"
  type: "Convolution"
  bottom: "conv3_f"
  top: "conv4_f"
  param {
    lr_mult: 1
    decay_mult: 1
  }
  param {
    lr_mult: 2
    decay_mult: 0
  }
  convolution_param {
    num_output: 64
    pad: 0
    kernel_size: 1
    weight_filler {
      type: "gaussian"
      std: 0.01
    }
    bias_filler {
      type: "constant"
      value: 0
    }
  }
}
layer {
  name: "relu4_f"
  type: "ReLU"
  bottom: "conv4_f"
  top: "conv4_f"
}
layer {
  name: "fc1_f"
  type: "InnerProduct"
  bottom: "conv4_f"
  top: "fc1_f"
  param {
    lr_mult: 1
  }
  param {
    lr_mult: 2
  }
  inner_product_param {
    num_output: 128
    weight_filler {
      type: "gaussian"
      std: 0.001
    }
    bias_filler {
      type: "constant"
      value: 1
    }
  }
}
layer {
  name: "relufc1_f"
  type: "ReLU"
  bottom: "fc1_f"
  top: "fc1_f"
}
layer {
  name: "fc2_f"
  type: "InnerProduct"
  bottom: "fc1_f"
  top: "fc2_f"
  param {
    lr_mult: 1
  }
  param {
    lr_mult: 2
  }
  inner_product_param {
    num_output: 64
    weight_filler {
      type: "gaussian"
      std: 0.001
    }
    bias_filler {
      type: "constant"
      value: 1
    }
  }
}
layer {
  name: "relufc2_f"
  type: "ReLU"
  bottom: "fc2_f"
  top: "fc2_f"
}
layer {
  name: "concat1"
  type: "Concat"
  bottom: "conv4_l"
  bottom: "conv4_r"
  top: "concat1"
  concat_param {
    axis: 1
  }
}
layer {
  name: "fc1"
  type: "InnerProduct"
  bottom: "concat1"
  top: "fc1"
  param {
    lr_mult: 1
  }
  param {
    lr_mult: 2
  }
  inner_product_param {
    num_output: 128
    weight_filler {
      type: "gaussian"
      std: 0.001
    }
    bias_filler {
      type: "constant"
      value: 1
    }
  }
}
layer {
  name: "relufc1"
  type: "ReLU"
  bottom: "fc1"
  top: "fc1"
}
layer {
  name: "flatten"
  type: "Flatten"
  bottom: "facegrid"
  top: "flatten"
}
layer {
  name: "fg_fc1"
  type: "InnerProduct"
  bottom: "flatten"
  top: "fg_fc1"
  param {
    lr_mult: 1
  }
  param {
    lr_mult: 2
  }
  inner_product_param {
    num_output: 256
    weight_filler {
      type: "gaussian"
      std: 0.001
    }
    bias_filler {
      type: "constant"
      value: 1
    }
  }
}
layer {
  name: "relufgfc1"
  type: "ReLU"
  bottom: "fg_fc1"
  top: "fg_fc1"
}
layer {
  name: "fg_fc2"
  type: "InnerProduct"
  bottom: "fg_fc1"
  top: "fg_fc2"
  param {
    lr_mult: 1
  }
  param {
    lr_mult: 2
  }
  inner_product_param {
    num_output: 128
    weight_filler {
      type: "gaussian"
      std: 0.001
    }
    bias_filler {
      type: "constant"
      value: 1
    }
  }
}
layer {
  name: "relufgfc2"
  type: "ReLU"
  bottom: "fg_fc2"
  top: "fg_fc2"
}
layer {
  name: "concat2"
  type: "Concat"
  bottom: "fc1"
  bottom: "fg_fc2"
  bottom: "fc2_f"
  top: "concat2"
  concat_param {
    axis: 1
  }
}
layer {
  name: "fc2"
  type: "InnerProduct"
  bottom: "concat2"
  top: "fc2"
  param {
    lr_mult: 1
  }
  param {
    lr_mult: 2
  }
  inner_product_param {
    num_output: 128
    weight_filler {
      type: "gaussian"
      std: 0.001
    }
    bias_filler {
      type: "constant"
      value: 1
    }
  }
}
layer {
  name: "relufc2"
  type: "ReLU"
  bottom: "fc2"
  top: "fc2"
}
layer {
  name: "penloss"
  type: "EuclideanLoss"
  bottom: "fc2"
  bottom: "pen"
  top: "penloss"
  loss_weight: 1
}
layer {
  name: "fc3"
  type: "InnerProduct"
  bottom: "fc2"
  top: "fc3"
  param {
    lr_mult: 1
  }
  param {
    lr_mult: 2
  }
  inner_product_param {
    num_output: 2
    weight_filler {
      type: "gaussian"
      std: 0.001
    }
    bias_filler {
      type: "constant"
      value: 0
    }
  }
}
layer {
  name: "trueloss"
  type: "EuclideanLoss"
  bottom: "fc3"
  bottom: "gaze"
  top: "trueloss"
  loss_weight: 0.5
}
layer {
  name: "predloss"
  type: "EuclideanLoss"
  bottom: "fc3"
  bottom: "gazepred"
  top: "predloss"
  loss_weight: 0.5
}
I0112 19:58:55.859665  4769 layer_factory.hpp:77] Creating layer itracker
I0112 19:58:55.862203  4769 db_lmdb.cpp:35] Opened lmdb lmdb/train_left_112_image_lmdb
I0112 19:58:55.862808  4769 net.cpp:84] Creating Layer itracker
I0112 19:58:55.862835  4769 net.cpp:380] itracker -> image_left
I0112 19:58:55.862910  4769 data_transformer.cpp:25] Loading mean file from: mean_images/mean_left_112.binaryproto
I0112 19:58:55.868129  4769 data_layer.cpp:45] output data size: 256,3,112,112
I0112 19:58:55.995928  4769 net.cpp:122] Setting up itracker
I0112 19:58:55.995980  4769 net.cpp:129] Top shape: 256 3 112 112 (9633792)
I0112 19:58:55.995990  4769 net.cpp:137] Memory required for data: 38535168
I0112 19:58:55.996011  4769 layer_factory.hpp:77] Creating layer itracker
I0112 19:58:55.997740  4769 db_lmdb.cpp:35] Opened lmdb lmdb/train_right_112_image_lmdb
I0112 19:58:55.999631  4769 net.cpp:84] Creating Layer itracker
I0112 19:58:55.999660  4769 net.cpp:380] itracker -> image_right
I0112 19:58:55.999687  4769 data_transformer.cpp:25] Loading mean file from: mean_images/mean_right_112.binaryproto
I0112 19:58:56.003954  4769 data_layer.cpp:45] output data size: 256,3,112,112
I0112 19:58:56.151157  4769 net.cpp:122] Setting up itracker
I0112 19:58:56.151223  4769 net.cpp:129] Top shape: 256 3 112 112 (9633792)
I0112 19:58:56.151233  4769 net.cpp:137] Memory required for data: 77070336
I0112 19:58:56.151243  4769 layer_factory.hpp:77] Creating layer itracker
I0112 19:58:56.152875  4769 db_lmdb.cpp:35] Opened lmdb lmdb/train_face_112_image_lmdb
I0112 19:58:56.154829  4769 net.cpp:84] Creating Layer itracker
I0112 19:58:56.154857  4769 net.cpp:380] itracker -> image_face
I0112 19:58:56.154883  4769 data_transformer.cpp:25] Loading mean file from: mean_images/mean_face_112.binaryproto
I0112 19:58:56.160360  4769 data_layer.cpp:45] output data size: 256,3,112,112
I0112 19:58:56.294497  4769 net.cpp:122] Setting up itracker
I0112 19:58:56.294544  4769 net.cpp:129] Top shape: 256 3 112 112 (9633792)
I0112 19:58:56.294550  4769 net.cpp:137] Memory required for data: 115605504
I0112 19:58:56.294589  4769 layer_factory.hpp:77] Creating layer itracker
I0112 19:58:56.296138  4769 db_lmdb.cpp:35] Opened lmdb lmdb/train_facegrid_lmdb
I0112 19:58:56.296752  4769 net.cpp:84] Creating Layer itracker
I0112 19:58:56.296777  4769 net.cpp:380] itracker -> facegrid
I0112 19:58:56.300788  4769 data_layer.cpp:45] output data size: 256,625,1,1
I0112 19:58:56.304739  4769 net.cpp:122] Setting up itracker
I0112 19:58:56.304769  4769 net.cpp:129] Top shape: 256 625 1 1 (160000)
I0112 19:58:56.304778  4769 net.cpp:137] Memory required for data: 116245504
I0112 19:58:56.304788  4769 layer_factory.hpp:77] Creating layer gaze
I0112 19:58:56.305987  4769 db_lmdb.cpp:35] Opened lmdb lmdb/train_gaze_lmdb
I0112 19:58:56.307574  4769 net.cpp:84] Creating Layer gaze
I0112 19:58:56.307595  4769 net.cpp:380] gaze -> gaze
I0112 19:58:56.307705  4769 data_layer.cpp:45] output data size: 256,2,1,1
I0112 19:58:56.308719  4769 net.cpp:122] Setting up gaze
I0112 19:58:56.308743  4769 net.cpp:129] Top shape: 256 2 1 1 (512)
I0112 19:58:56.308753  4769 net.cpp:137] Memory required for data: 116247552
I0112 19:58:56.308760  4769 layer_factory.hpp:77] Creating layer gazepred
I0112 19:58:56.310425  4769 db_lmdb.cpp:35] Opened lmdb lmdb/train_gazepred_lmdb
I0112 19:58:56.311755  4769 net.cpp:84] Creating Layer gazepred
I0112 19:58:56.311780  4769 net.cpp:380] gazepred -> gazepred
I0112 19:58:56.311892  4769 data_layer.cpp:45] output data size: 256,2,1,1
I0112 19:58:56.312086  4769 net.cpp:122] Setting up gazepred
I0112 19:58:56.312135  4769 net.cpp:129] Top shape: 256 2 1 1 (512)
I0112 19:58:56.312178  4769 net.cpp:137] Memory required for data: 116249600
I0112 19:58:56.312211  4769 layer_factory.hpp:77] Creating layer pen
I0112 19:58:56.313995  4769 db_lmdb.cpp:35] Opened lmdb lmdb/train_pen_lmdb
I0112 19:58:56.316129  4769 net.cpp:84] Creating Layer pen
I0112 19:58:56.316151  4769 net.cpp:380] pen -> pen
I0112 19:58:56.316295  4769 data_layer.cpp:45] output data size: 256,128,1,1
I0112 19:58:56.319541  4769 net.cpp:122] Setting up pen
I0112 19:58:56.319593  4769 net.cpp:129] Top shape: 256 128 1 1 (32768)
I0112 19:58:56.319628  4769 net.cpp:137] Memory required for data: 116380672
I0112 19:58:56.319658  4769 layer_factory.hpp:77] Creating layer conv1
I0112 19:58:56.319725  4769 net.cpp:84] Creating Layer conv1
I0112 19:58:56.319768  4769 net.cpp:406] conv1 <- image_left
I0112 19:58:56.319825  4769 net.cpp:380] conv1 -> conv1
I0112 19:58:56.945758  4769 net.cpp:122] Setting up conv1
I0112 19:58:56.945813  4769 net.cpp:129] Top shape: 256 72 26 26 (12460032)
I0112 19:58:56.945819  4769 net.cpp:137] Memory required for data: 166220800
I0112 19:58:56.945843  4769 layer_factory.hpp:77] Creating layer relu1
I0112 19:58:56.945858  4769 net.cpp:84] Creating Layer relu1
I0112 19:58:56.945868  4769 net.cpp:406] relu1 <- conv1
I0112 19:58:56.945879  4769 net.cpp:367] relu1 -> conv1 (in-place)
I0112 19:58:56.946504  4769 net.cpp:122] Setting up relu1
I0112 19:58:56.946527  4769 net.cpp:129] Top shape: 256 72 26 26 (12460032)
I0112 19:58:56.946532  4769 net.cpp:137] Memory required for data: 216060928
I0112 19:58:56.946538  4769 layer_factory.hpp:77] Creating layer pool1
I0112 19:58:56.946548  4769 net.cpp:84] Creating Layer pool1
I0112 19:58:56.946561  4769 net.cpp:406] pool1 <- conv1
I0112 19:58:56.946576  4769 net.cpp:380] pool1 -> pool1
I0112 19:58:56.946678  4769 net.cpp:122] Setting up pool1
I0112 19:58:56.946701  4769 net.cpp:129] Top shape: 256 72 13 13 (3115008)
I0112 19:58:56.946714  4769 net.cpp:137] Memory required for data: 228520960
I0112 19:58:56.946722  4769 layer_factory.hpp:77] Creating layer norm1
I0112 19:58:56.946738  4769 net.cpp:84] Creating Layer norm1
I0112 19:58:56.946797  4769 net.cpp:406] norm1 <- pool1
I0112 19:58:56.946820  4769 net.cpp:380] norm1 -> norm1
I0112 19:58:56.947523  4769 net.cpp:122] Setting up norm1
I0112 19:58:56.947547  4769 net.cpp:129] Top shape: 256 72 13 13 (3115008)
I0112 19:58:56.947552  4769 net.cpp:137] Memory required for data: 240980992
I0112 19:58:56.947587  4769 layer_factory.hpp:77] Creating layer conv2
I0112 19:58:56.947613  4769 net.cpp:84] Creating Layer conv2
I0112 19:58:56.947630  4769 net.cpp:406] conv2 <- norm1
I0112 19:58:56.947646  4769 net.cpp:380] conv2 -> conv2
I0112 19:58:56.952688  4769 net.cpp:122] Setting up conv2
I0112 19:58:56.952718  4769 net.cpp:129] Top shape: 256 192 13 13 (8306688)
I0112 19:58:56.952723  4769 net.cpp:137] Memory required for data: 274207744
I0112 19:58:56.952733  4769 layer_factory.hpp:77] Creating layer relu2
I0112 19:58:56.952749  4769 net.cpp:84] Creating Layer relu2
I0112 19:58:56.952759  4769 net.cpp:406] relu2 <- conv2
I0112 19:58:56.952778  4769 net.cpp:367] relu2 -> conv2 (in-place)
I0112 19:58:56.953227  4769 net.cpp:122] Setting up relu2
I0112 19:58:56.953246  4769 net.cpp:129] Top shape: 256 192 13 13 (8306688)
I0112 19:58:56.953251  4769 net.cpp:137] Memory required for data: 307434496
I0112 19:58:56.953256  4769 layer_factory.hpp:77] Creating layer pool2
I0112 19:58:56.953266  4769 net.cpp:84] Creating Layer pool2
I0112 19:58:56.953274  4769 net.cpp:406] pool2 <- conv2
I0112 19:58:56.953282  4769 net.cpp:380] pool2 -> pool2
I0112 19:58:56.953366  4769 net.cpp:122] Setting up pool2
I0112 19:58:56.953387  4769 net.cpp:129] Top shape: 256 192 6 6 (1769472)
I0112 19:58:56.953394  4769 net.cpp:137] Memory required for data: 314512384
I0112 19:58:56.953408  4769 layer_factory.hpp:77] Creating layer norm2
I0112 19:58:56.953421  4769 net.cpp:84] Creating Layer norm2
I0112 19:58:56.953434  4769 net.cpp:406] norm2 <- pool2
I0112 19:58:56.953444  4769 net.cpp:380] norm2 -> norm2
I0112 19:58:56.954093  4769 net.cpp:122] Setting up norm2
I0112 19:58:56.954116  4769 net.cpp:129] Top shape: 256 192 6 6 (1769472)
I0112 19:58:56.954121  4769 net.cpp:137] Memory required for data: 321590272
I0112 19:58:56.954126  4769 layer_factory.hpp:77] Creating layer conv3
I0112 19:58:56.954138  4769 net.cpp:84] Creating Layer conv3
I0112 19:58:56.954154  4769 net.cpp:406] conv3 <- norm2
I0112 19:58:56.954170  4769 net.cpp:380] conv3 -> conv3
I0112 19:58:56.961447  4769 net.cpp:122] Setting up conv3
I0112 19:58:56.961472  4769 net.cpp:129] Top shape: 256 288 6 6 (2654208)
I0112 19:58:56.961478  4769 net.cpp:137] Memory required for data: 332207104
I0112 19:58:56.961488  4769 layer_factory.hpp:77] Creating layer relu3
I0112 19:58:56.961510  4769 net.cpp:84] Creating Layer relu3
I0112 19:58:56.961525  4769 net.cpp:406] relu3 <- conv3
I0112 19:58:56.961537  4769 net.cpp:367] relu3 -> conv3 (in-place)
I0112 19:58:56.961974  4769 net.cpp:122] Setting up relu3
I0112 19:58:56.961997  4769 net.cpp:129] Top shape: 256 288 6 6 (2654208)
I0112 19:58:56.962002  4769 net.cpp:137] Memory required for data: 342823936
I0112 19:58:56.962007  4769 layer_factory.hpp:77] Creating layer conv4_l
I0112 19:58:56.962023  4769 net.cpp:84] Creating Layer conv4_l
I0112 19:58:56.962038  4769 net.cpp:406] conv4_l <- conv3
I0112 19:58:56.962054  4769 net.cpp:380] conv4_l -> conv4_l
I0112 19:58:56.963939  4769 net.cpp:122] Setting up conv4_l
I0112 19:58:56.963966  4769 net.cpp:129] Top shape: 256 64 6 6 (589824)
I0112 19:58:56.963971  4769 net.cpp:137] Memory required for data: 345183232
I0112 19:58:56.964004  4769 layer_factory.hpp:77] Creating layer relu4_l
I0112 19:58:56.964025  4769 net.cpp:84] Creating Layer relu4_l
I0112 19:58:56.964033  4769 net.cpp:406] relu4_l <- conv4_l
I0112 19:58:56.964049  4769 net.cpp:367] relu4_l -> conv4_l (in-place)
I0112 19:58:56.964628  4769 net.cpp:122] Setting up relu4_l
I0112 19:58:56.964654  4769 net.cpp:129] Top shape: 256 64 6 6 (589824)
I0112 19:58:56.964659  4769 net.cpp:137] Memory required for data: 347542528
I0112 19:58:56.964665  4769 layer_factory.hpp:77] Creating layer conv1_r
I0112 19:58:56.964679  4769 net.cpp:84] Creating Layer conv1_r
I0112 19:58:56.964696  4769 net.cpp:406] conv1_r <- image_right
I0112 19:58:56.964714  4769 net.cpp:380] conv1_r -> conv1_r
I0112 19:58:56.966780  4769 net.cpp:122] Setting up conv1_r
I0112 19:58:56.966809  4769 net.cpp:129] Top shape: 256 72 26 26 (12460032)
I0112 19:58:56.966838  4769 net.cpp:137] Memory required for data: 397382656
I0112 19:58:56.966851  4769 net.cpp:465] Sharing parameters 'conv1_w' owned by layer 'conv1', param index 0
I0112 19:58:56.966861  4769 net.cpp:465] Sharing parameters 'conv1_b' owned by layer 'conv1', param index 1
I0112 19:58:56.966876  4769 layer_factory.hpp:77] Creating layer relu1_r
I0112 19:58:56.966887  4769 net.cpp:84] Creating Layer relu1_r
I0112 19:58:56.966902  4769 net.cpp:406] relu1_r <- conv1_r
I0112 19:58:56.966914  4769 net.cpp:367] relu1_r -> conv1_r (in-place)
I0112 19:58:56.967540  4769 net.cpp:122] Setting up relu1_r
I0112 19:58:56.967564  4769 net.cpp:129] Top shape: 256 72 26 26 (12460032)
I0112 19:58:56.967602  4769 net.cpp:137] Memory required for data: 447222784
I0112 19:58:56.967607  4769 layer_factory.hpp:77] Creating layer pool1_r
I0112 19:58:56.967613  4769 net.cpp:84] Creating Layer pool1_r
I0112 19:58:56.967619  4769 net.cpp:406] pool1_r <- conv1_r
I0112 19:58:56.967628  4769 net.cpp:380] pool1_r -> pool1_r
I0112 19:58:56.967710  4769 net.cpp:122] Setting up pool1_r
I0112 19:58:56.967733  4769 net.cpp:129] Top shape: 256 72 13 13 (3115008)
I0112 19:58:56.967747  4769 net.cpp:137] Memory required for data: 459682816
I0112 19:58:56.967754  4769 layer_factory.hpp:77] Creating layer norm1_r
I0112 19:58:56.967768  4769 net.cpp:84] Creating Layer norm1_r
I0112 19:58:56.967782  4769 net.cpp:406] norm1_r <- pool1_r
I0112 19:58:56.967792  4769 net.cpp:380] norm1_r -> norm1_r
I0112 19:58:56.968288  4769 net.cpp:122] Setting up norm1_r
I0112 19:58:56.968314  4769 net.cpp:129] Top shape: 256 72 13 13 (3115008)
I0112 19:58:56.968325  4769 net.cpp:137] Memory required for data: 472142848
I0112 19:58:56.968341  4769 layer_factory.hpp:77] Creating layer conv2_r
I0112 19:58:56.968359  4769 net.cpp:84] Creating Layer conv2_r
I0112 19:58:56.968375  4769 net.cpp:406] conv2_r <- norm1_r
I0112 19:58:56.968389  4769 net.cpp:380] conv2_r -> conv2_r
I0112 19:58:56.973451  4769 net.cpp:122] Setting up conv2_r
I0112 19:58:56.973475  4769 net.cpp:129] Top shape: 256 192 13 13 (8306688)
I0112 19:58:56.973481  4769 net.cpp:137] Memory required for data: 505369600
I0112 19:58:56.973487  4769 net.cpp:465] Sharing parameters 'conv2_w' owned by layer 'conv2', param index 0
I0112 19:58:56.973493  4769 net.cpp:465] Sharing parameters 'conv2_b' owned by layer 'conv2', param index 1
I0112 19:58:56.973498  4769 layer_factory.hpp:77] Creating layer relu2_r
I0112 19:58:56.973507  4769 net.cpp:84] Creating Layer relu2_r
I0112 19:58:56.973515  4769 net.cpp:406] relu2_r <- conv2_r
I0112 19:58:56.973533  4769 net.cpp:367] relu2_r -> conv2_r (in-place)
I0112 19:58:56.974125  4769 net.cpp:122] Setting up relu2_r
I0112 19:58:56.974150  4769 net.cpp:129] Top shape: 256 192 13 13 (8306688)
I0112 19:58:56.974155  4769 net.cpp:137] Memory required for data: 538596352
I0112 19:58:56.974160  4769 layer_factory.hpp:77] Creating layer pool2_r
I0112 19:58:56.974171  4769 net.cpp:84] Creating Layer pool2_r
I0112 19:58:56.974185  4769 net.cpp:406] pool2_r <- conv2_r
I0112 19:58:56.974196  4769 net.cpp:380] pool2_r -> pool2_r
I0112 19:58:56.974284  4769 net.cpp:122] Setting up pool2_r
I0112 19:58:56.974305  4769 net.cpp:129] Top shape: 256 192 6 6 (1769472)
I0112 19:58:56.974313  4769 net.cpp:137] Memory required for data: 545674240
I0112 19:58:56.974325  4769 layer_factory.hpp:77] Creating layer norm2_r
I0112 19:58:56.974339  4769 net.cpp:84] Creating Layer norm2_r
I0112 19:58:56.974352  4769 net.cpp:406] norm2_r <- pool2_r
I0112 19:58:56.974361  4769 net.cpp:380] norm2_r -> norm2_r
I0112 19:58:56.974862  4769 net.cpp:122] Setting up norm2_r
I0112 19:58:56.974894  4769 net.cpp:129] Top shape: 256 192 6 6 (1769472)
I0112 19:58:56.974900  4769 net.cpp:137] Memory required for data: 552752128
I0112 19:58:56.974907  4769 layer_factory.hpp:77] Creating layer conv3_r
I0112 19:58:56.974932  4769 net.cpp:84] Creating Layer conv3_r
I0112 19:58:56.974948  4769 net.cpp:406] conv3_r <- norm2_r
I0112 19:58:56.974961  4769 net.cpp:380] conv3_r -> conv3_r
I0112 19:58:56.982264  4769 net.cpp:122] Setting up conv3_r
I0112 19:58:56.982301  4769 net.cpp:129] Top shape: 256 288 6 6 (2654208)
I0112 19:58:56.982307  4769 net.cpp:137] Memory required for data: 563368960
I0112 19:58:56.982314  4769 net.cpp:465] Sharing parameters 'conv3_w' owned by layer 'conv3', param index 0
I0112 19:58:56.982319  4769 net.cpp:465] Sharing parameters 'conv3_b' owned by layer 'conv3', param index 1
I0112 19:58:56.982326  4769 layer_factory.hpp:77] Creating layer relu3_r
I0112 19:58:56.982336  4769 net.cpp:84] Creating Layer relu3_r
I0112 19:58:56.982350  4769 net.cpp:406] relu3_r <- conv3_r
I0112 19:58:56.982364  4769 net.cpp:367] relu3_r -> conv3_r (in-place)
I0112 19:58:56.983031  4769 net.cpp:122] Setting up relu3_r
I0112 19:58:56.983054  4769 net.cpp:129] Top shape: 256 288 6 6 (2654208)
I0112 19:58:56.983059  4769 net.cpp:137] Memory required for data: 573985792
I0112 19:58:56.983064  4769 layer_factory.hpp:77] Creating layer conv4_r
I0112 19:58:56.983078  4769 net.cpp:84] Creating Layer conv4_r
I0112 19:58:56.983094  4769 net.cpp:406] conv4_r <- conv3_r
I0112 19:58:56.983108  4769 net.cpp:380] conv4_r -> conv4_r
I0112 19:58:56.985028  4769 net.cpp:122] Setting up conv4_r
I0112 19:58:56.985051  4769 net.cpp:129] Top shape: 256 64 6 6 (589824)
I0112 19:58:56.985057  4769 net.cpp:137] Memory required for data: 576345088
I0112 19:58:56.985066  4769 layer_factory.hpp:77] Creating layer relu4_r
I0112 19:58:56.985083  4769 net.cpp:84] Creating Layer relu4_r
I0112 19:58:56.985091  4769 net.cpp:406] relu4_r <- conv4_r
I0112 19:58:56.985112  4769 net.cpp:367] relu4_r -> conv4_r (in-place)
I0112 19:58:56.985704  4769 net.cpp:122] Setting up relu4_r
I0112 19:58:56.985726  4769 net.cpp:129] Top shape: 256 64 6 6 (589824)
I0112 19:58:56.985731  4769 net.cpp:137] Memory required for data: 578704384
I0112 19:58:56.985738  4769 layer_factory.hpp:77] Creating layer conv1_f
I0112 19:58:56.985752  4769 net.cpp:84] Creating Layer conv1_f
I0112 19:58:56.985769  4769 net.cpp:406] conv1_f <- image_face
I0112 19:58:56.985785  4769 net.cpp:380] conv1_f -> conv1_f
I0112 19:58:56.987802  4769 net.cpp:122] Setting up conv1_f
I0112 19:58:56.987825  4769 net.cpp:129] Top shape: 256 72 26 26 (12460032)
I0112 19:58:56.987831  4769 net.cpp:137] Memory required for data: 628544512
I0112 19:58:56.987843  4769 layer_factory.hpp:77] Creating layer relu1_f
I0112 19:58:56.987867  4769 net.cpp:84] Creating Layer relu1_f
I0112 19:58:56.987884  4769 net.cpp:406] relu1_f <- conv1_f
I0112 19:58:56.987895  4769 net.cpp:367] relu1_f -> conv1_f (in-place)
I0112 19:58:56.988342  4769 net.cpp:122] Setting up relu1_f
I0112 19:58:56.988363  4769 net.cpp:129] Top shape: 256 72 26 26 (12460032)
I0112 19:58:56.988366  4769 net.cpp:137] Memory required for data: 678384640
I0112 19:58:56.988371  4769 layer_factory.hpp:77] Creating layer pool1_f
I0112 19:58:56.988381  4769 net.cpp:84] Creating Layer pool1_f
I0112 19:58:56.988395  4769 net.cpp:406] pool1_f <- conv1_f
I0112 19:58:56.988406  4769 net.cpp:380] pool1_f -> pool1_f
I0112 19:58:56.988495  4769 net.cpp:122] Setting up pool1_f
I0112 19:58:56.988515  4769 net.cpp:129] Top shape: 256 72 13 13 (3115008)
I0112 19:58:56.988530  4769 net.cpp:137] Memory required for data: 690844672
I0112 19:58:56.988538  4769 layer_factory.hpp:77] Creating layer norm1_f
I0112 19:58:56.988550  4769 net.cpp:84] Creating Layer norm1_f
I0112 19:58:56.988564  4769 net.cpp:406] norm1_f <- pool1_f
I0112 19:58:56.988575  4769 net.cpp:380] norm1_f -> norm1_f
I0112 19:58:56.989259  4769 net.cpp:122] Setting up norm1_f
I0112 19:58:56.989280  4769 net.cpp:129] Top shape: 256 72 13 13 (3115008)
I0112 19:58:56.989285  4769 net.cpp:137] Memory required for data: 703304704
I0112 19:58:56.989291  4769 layer_factory.hpp:77] Creating layer conv2_f
I0112 19:58:56.989307  4769 net.cpp:84] Creating Layer conv2_f
I0112 19:58:56.989322  4769 net.cpp:406] conv2_f <- norm1_f
I0112 19:58:56.989336  4769 net.cpp:380] conv2_f -> conv2_f
I0112 19:58:56.994473  4769 net.cpp:122] Setting up conv2_f
I0112 19:58:56.994498  4769 net.cpp:129] Top shape: 256 192 13 13 (8306688)
I0112 19:58:56.994503  4769 net.cpp:137] Memory required for data: 736531456
I0112 19:58:56.994525  4769 layer_factory.hpp:77] Creating layer relu2_f
I0112 19:58:56.994549  4769 net.cpp:84] Creating Layer relu2_f
I0112 19:58:56.994565  4769 net.cpp:406] relu2_f <- conv2_f
I0112 19:58:56.994575  4769 net.cpp:367] relu2_f -> conv2_f (in-place)
I0112 19:58:56.995061  4769 net.cpp:122] Setting up relu2_f
I0112 19:58:56.995087  4769 net.cpp:129] Top shape: 256 192 13 13 (8306688)
I0112 19:58:56.995092  4769 net.cpp:137] Memory required for data: 769758208
I0112 19:58:56.995097  4769 layer_factory.hpp:77] Creating layer pool2_f
I0112 19:58:56.995105  4769 net.cpp:84] Creating Layer pool2_f
I0112 19:58:56.995112  4769 net.cpp:406] pool2_f <- conv2_f
I0112 19:58:56.995129  4769 net.cpp:380] pool2_f -> pool2_f
I0112 19:58:56.995213  4769 net.cpp:122] Setting up pool2_f
I0112 19:58:56.995234  4769 net.cpp:129] Top shape: 256 192 6 6 (1769472)
I0112 19:58:56.995249  4769 net.cpp:137] Memory required for data: 776836096
I0112 19:58:56.995256  4769 layer_factory.hpp:77] Creating layer norm2_f
I0112 19:58:56.995271  4769 net.cpp:84] Creating Layer norm2_f
I0112 19:58:56.995285  4769 net.cpp:406] norm2_f <- pool2_f
I0112 19:58:56.995296  4769 net.cpp:380] norm2_f -> norm2_f
I0112 19:58:56.996132  4769 net.cpp:122] Setting up norm2_f
I0112 19:58:56.996155  4769 net.cpp:129] Top shape: 256 192 6 6 (1769472)
I0112 19:58:56.996160  4769 net.cpp:137] Memory required for data: 783913984
I0112 19:58:56.996166  4769 layer_factory.hpp:77] Creating layer conv3_f
I0112 19:58:56.996182  4769 net.cpp:84] Creating Layer conv3_f
I0112 19:58:56.996198  4769 net.cpp:406] conv3_f <- norm2_f
I0112 19:58:56.996212  4769 net.cpp:380] conv3_f -> conv3_f
I0112 19:58:57.003585  4769 net.cpp:122] Setting up conv3_f
I0112 19:58:57.003610  4769 net.cpp:129] Top shape: 256 288 6 6 (2654208)
I0112 19:58:57.003615  4769 net.cpp:137] Memory required for data: 794530816
I0112 19:58:57.003623  4769 layer_factory.hpp:77] Creating layer relu3_f
I0112 19:58:57.003634  4769 net.cpp:84] Creating Layer relu3_f
I0112 19:58:57.003651  4769 net.cpp:406] relu3_f <- conv3_f
I0112 19:58:57.003661  4769 net.cpp:367] relu3_f -> conv3_f (in-place)
I0112 19:58:57.004308  4769 net.cpp:122] Setting up relu3_f
I0112 19:58:57.004333  4769 net.cpp:129] Top shape: 256 288 6 6 (2654208)
I0112 19:58:57.004338  4769 net.cpp:137] Memory required for data: 805147648
I0112 19:58:57.004343  4769 layer_factory.hpp:77] Creating layer conv4_f
I0112 19:58:57.004359  4769 net.cpp:84] Creating Layer conv4_f
I0112 19:58:57.004375  4769 net.cpp:406] conv4_f <- conv3_f
I0112 19:58:57.004389  4769 net.cpp:380] conv4_f -> conv4_f
I0112 19:58:57.006327  4769 net.cpp:122] Setting up conv4_f
I0112 19:58:57.006350  4769 net.cpp:129] Top shape: 256 64 6 6 (589824)
I0112 19:58:57.006356  4769 net.cpp:137] Memory required for data: 807506944
I0112 19:58:57.006368  4769 layer_factory.hpp:77] Creating layer relu4_f
I0112 19:58:57.006384  4769 net.cpp:84] Creating Layer relu4_f
I0112 19:58:57.006392  4769 net.cpp:406] relu4_f <- conv4_f
I0112 19:58:57.006410  4769 net.cpp:367] relu4_f -> conv4_f (in-place)
I0112 19:58:57.006891  4769 net.cpp:122] Setting up relu4_f
I0112 19:58:57.006911  4769 net.cpp:129] Top shape: 256 64 6 6 (589824)
I0112 19:58:57.006916  4769 net.cpp:137] Memory required for data: 809866240
I0112 19:58:57.006922  4769 layer_factory.hpp:77] Creating layer fc1_f
I0112 19:58:57.006935  4769 net.cpp:84] Creating Layer fc1_f
I0112 19:58:57.006950  4769 net.cpp:406] fc1_f <- conv4_f
I0112 19:58:57.006965  4769 net.cpp:380] fc1_f -> fc1_f
I0112 19:58:57.010601  4769 net.cpp:122] Setting up fc1_f
I0112 19:58:57.010623  4769 net.cpp:129] Top shape: 256 128 (32768)
I0112 19:58:57.010628  4769 net.cpp:137] Memory required for data: 809997312
I0112 19:58:57.010637  4769 layer_factory.hpp:77] Creating layer relufc1_f
I0112 19:58:57.010645  4769 net.cpp:84] Creating Layer relufc1_f
I0112 19:58:57.010651  4769 net.cpp:406] relufc1_f <- fc1_f
I0112 19:58:57.010660  4769 net.cpp:367] relufc1_f -> fc1_f (in-place)
I0112 19:58:57.011310  4769 net.cpp:122] Setting up relufc1_f
I0112 19:58:57.011334  4769 net.cpp:129] Top shape: 256 128 (32768)
I0112 19:58:57.011339  4769 net.cpp:137] Memory required for data: 810128384
I0112 19:58:57.011343  4769 layer_factory.hpp:77] Creating layer fc2_f
I0112 19:58:57.011353  4769 net.cpp:84] Creating Layer fc2_f
I0112 19:58:57.011368  4769 net.cpp:406] fc2_f <- fc1_f
I0112 19:58:57.011379  4769 net.cpp:380] fc2_f -> fc2_f
I0112 19:58:57.012357  4769 net.cpp:122] Setting up fc2_f
I0112 19:58:57.012380  4769 net.cpp:129] Top shape: 256 64 (16384)
I0112 19:58:57.012387  4769 net.cpp:137] Memory required for data: 810193920
I0112 19:58:57.012395  4769 layer_factory.hpp:77] Creating layer relufc2_f
I0112 19:58:57.012410  4769 net.cpp:84] Creating Layer relufc2_f
I0112 19:58:57.012419  4769 net.cpp:406] relufc2_f <- fc2_f
I0112 19:58:57.012437  4769 net.cpp:367] relufc2_f -> fc2_f (in-place)
I0112 19:58:57.012903  4769 net.cpp:122] Setting up relufc2_f
I0112 19:58:57.012923  4769 net.cpp:129] Top shape: 256 64 (16384)
I0112 19:58:57.012928  4769 net.cpp:137] Memory required for data: 810259456
I0112 19:58:57.012933  4769 layer_factory.hpp:77] Creating layer concat1
I0112 19:58:57.012948  4769 net.cpp:84] Creating Layer concat1
I0112 19:58:57.012961  4769 net.cpp:406] concat1 <- conv4_l
I0112 19:58:57.012971  4769 net.cpp:406] concat1 <- conv4_r
I0112 19:58:57.012993  4769 net.cpp:380] concat1 -> concat1
I0112 19:58:57.013059  4769 net.cpp:122] Setting up concat1
I0112 19:58:57.013079  4769 net.cpp:129] Top shape: 256 128 6 6 (1179648)
I0112 19:58:57.013087  4769 net.cpp:137] Memory required for data: 814978048
I0112 19:58:57.013100  4769 layer_factory.hpp:77] Creating layer fc1
I0112 19:58:57.013115  4769 net.cpp:84] Creating Layer fc1
I0112 19:58:57.013129  4769 net.cpp:406] fc1 <- concat1
I0112 19:58:57.013142  4769 net.cpp:380] fc1 -> fc1
I0112 19:58:57.020064  4769 net.cpp:122] Setting up fc1
I0112 19:58:57.020088  4769 net.cpp:129] Top shape: 256 128 (32768)
I0112 19:58:57.020097  4769 net.cpp:137] Memory required for data: 815109120
I0112 19:58:57.020109  4769 layer_factory.hpp:77] Creating layer relufc1
I0112 19:58:57.020121  4769 net.cpp:84] Creating Layer relufc1
I0112 19:58:57.020128  4769 net.cpp:406] relufc1 <- fc1
I0112 19:58:57.020143  4769 net.cpp:367] relufc1 -> fc1 (in-place)
I0112 19:58:57.020694  4769 net.cpp:122] Setting up relufc1
I0112 19:58:57.020720  4769 net.cpp:129] Top shape: 256 128 (32768)
I0112 19:58:57.020726  4769 net.cpp:137] Memory required for data: 815240192
I0112 19:58:57.020733  4769 layer_factory.hpp:77] Creating layer flatten
I0112 19:58:57.020747  4769 net.cpp:84] Creating Layer flatten
I0112 19:58:57.020757  4769 net.cpp:406] flatten <- facegrid
I0112 19:58:57.020771  4769 net.cpp:380] flatten -> flatten
I0112 19:58:57.020823  4769 net.cpp:122] Setting up flatten
I0112 19:58:57.020839  4769 net.cpp:129] Top shape: 256 625 (160000)
I0112 19:58:57.020848  4769 net.cpp:137] Memory required for data: 815880192
I0112 19:58:57.020854  4769 layer_factory.hpp:77] Creating layer fg_fc1
I0112 19:58:57.020869  4769 net.cpp:84] Creating Layer fg_fc1
I0112 19:58:57.020877  4769 net.cpp:406] fg_fc1 <- flatten
I0112 19:58:57.020891  4769 net.cpp:380] fg_fc1 -> fg_fc1
I0112 19:58:57.023165  4769 net.cpp:122] Setting up fg_fc1
I0112 19:58:57.023188  4769 net.cpp:129] Top shape: 256 256 (65536)
I0112 19:58:57.023196  4769 net.cpp:137] Memory required for data: 816142336
I0112 19:58:57.023211  4769 layer_factory.hpp:77] Creating layer relufgfc1
I0112 19:58:57.023221  4769 net.cpp:84] Creating Layer relufgfc1
I0112 19:58:57.023228  4769 net.cpp:406] relufgfc1 <- fg_fc1
I0112 19:58:57.023243  4769 net.cpp:367] relufgfc1 -> fg_fc1 (in-place)
I0112 19:58:57.023726  4769 net.cpp:122] Setting up relufgfc1
I0112 19:58:57.023748  4769 net.cpp:129] Top shape: 256 256 (65536)
I0112 19:58:57.023756  4769 net.cpp:137] Memory required for data: 816404480
I0112 19:58:57.023763  4769 layer_factory.hpp:77] Creating layer fg_fc2
I0112 19:58:57.023779  4769 net.cpp:84] Creating Layer fg_fc2
I0112 19:58:57.023787  4769 net.cpp:406] fg_fc2 <- fg_fc1
I0112 19:58:57.023823  4769 net.cpp:380] fg_fc2 -> fg_fc2
I0112 19:58:57.024312  4769 net.cpp:122] Setting up fg_fc2
I0112 19:58:57.024330  4769 net.cpp:129] Top shape: 256 128 (32768)
I0112 19:58:57.024336  4769 net.cpp:137] Memory required for data: 816535552
I0112 19:58:57.024360  4769 layer_factory.hpp:77] Creating layer relufgfc2
I0112 19:58:57.024375  4769 net.cpp:84] Creating Layer relufgfc2
I0112 19:58:57.024385  4769 net.cpp:406] relufgfc2 <- fg_fc2
I0112 19:58:57.024399  4769 net.cpp:367] relufgfc2 -> fg_fc2 (in-place)
I0112 19:58:57.024739  4769 net.cpp:122] Setting up relufgfc2
I0112 19:58:57.024760  4769 net.cpp:129] Top shape: 256 128 (32768)
I0112 19:58:57.024767  4769 net.cpp:137] Memory required for data: 816666624
I0112 19:58:57.024775  4769 layer_factory.hpp:77] Creating layer concat2
I0112 19:58:57.024785  4769 net.cpp:84] Creating Layer concat2
I0112 19:58:57.024791  4769 net.cpp:406] concat2 <- fc1
I0112 19:58:57.024801  4769 net.cpp:406] concat2 <- fg_fc2
I0112 19:58:57.024809  4769 net.cpp:406] concat2 <- fc2_f
I0112 19:58:57.024822  4769 net.cpp:380] concat2 -> concat2
I0112 19:58:57.024871  4769 net.cpp:122] Setting up concat2
I0112 19:58:57.024888  4769 net.cpp:129] Top shape: 256 320 (81920)
I0112 19:58:57.024894  4769 net.cpp:137] Memory required for data: 816994304
I0112 19:58:57.024900  4769 layer_factory.hpp:77] Creating layer fc2
I0112 19:58:57.024912  4769 net.cpp:84] Creating Layer fc2
I0112 19:58:57.024921  4769 net.cpp:406] fc2 <- concat2
I0112 19:58:57.024935  4769 net.cpp:380] fc2 -> fc2
I0112 19:58:57.025497  4769 net.cpp:122] Setting up fc2
I0112 19:58:57.025516  4769 net.cpp:129] Top shape: 256 128 (32768)
I0112 19:58:57.025523  4769 net.cpp:137] Memory required for data: 817125376
I0112 19:58:57.025535  4769 layer_factory.hpp:77] Creating layer relufc2
I0112 19:58:57.025552  4769 net.cpp:84] Creating Layer relufc2
I0112 19:58:57.025559  4769 net.cpp:406] relufc2 <- fc2
I0112 19:58:57.025571  4769 net.cpp:367] relufc2 -> fc2 (in-place)
I0112 19:58:57.026047  4769 net.cpp:122] Setting up relufc2
I0112 19:58:57.026069  4769 net.cpp:129] Top shape: 256 128 (32768)
I0112 19:58:57.026077  4769 net.cpp:137] Memory required for data: 817256448
I0112 19:58:57.026085  4769 layer_factory.hpp:77] Creating layer fc2_relufc2_0_split
I0112 19:58:57.026105  4769 net.cpp:84] Creating Layer fc2_relufc2_0_split
I0112 19:58:57.026115  4769 net.cpp:406] fc2_relufc2_0_split <- fc2
I0112 19:58:57.026129  4769 net.cpp:380] fc2_relufc2_0_split -> fc2_relufc2_0_split_0
I0112 19:58:57.026144  4769 net.cpp:380] fc2_relufc2_0_split -> fc2_relufc2_0_split_1
I0112 19:58:57.026218  4769 net.cpp:122] Setting up fc2_relufc2_0_split
I0112 19:58:57.026234  4769 net.cpp:129] Top shape: 256 128 (32768)
I0112 19:58:57.026243  4769 net.cpp:129] Top shape: 256 128 (32768)
I0112 19:58:57.026250  4769 net.cpp:137] Memory required for data: 817518592
I0112 19:58:57.026257  4769 layer_factory.hpp:77] Creating layer penloss
I0112 19:58:57.026273  4769 net.cpp:84] Creating Layer penloss
I0112 19:58:57.026283  4769 net.cpp:406] penloss <- fc2_relufc2_0_split_0
I0112 19:58:57.026293  4769 net.cpp:406] penloss <- pen
I0112 19:58:57.026306  4769 net.cpp:380] penloss -> penloss
I0112 19:58:57.026381  4769 net.cpp:122] Setting up penloss
I0112 19:58:57.026401  4769 net.cpp:129] Top shape: (1)
I0112 19:58:57.026407  4769 net.cpp:132]     with loss weight 1
I0112 19:58:57.026460  4769 net.cpp:137] Memory required for data: 817518596
I0112 19:58:57.026469  4769 layer_factory.hpp:77] Creating layer fc3
I0112 19:58:57.026484  4769 net.cpp:84] Creating Layer fc3
I0112 19:58:57.026494  4769 net.cpp:406] fc3 <- fc2_relufc2_0_split_1
I0112 19:58:57.026507  4769 net.cpp:380] fc3 -> fc3
I0112 19:58:57.026657  4769 net.cpp:122] Setting up fc3
I0112 19:58:57.026672  4769 net.cpp:129] Top shape: 256 2 (512)
I0112 19:58:57.026679  4769 net.cpp:137] Memory required for data: 817520644
I0112 19:58:57.026691  4769 layer_factory.hpp:77] Creating layer fc3_fc3_0_split
I0112 19:58:57.026702  4769 net.cpp:84] Creating Layer fc3_fc3_0_split
I0112 19:58:57.026722  4769 net.cpp:406] fc3_fc3_0_split <- fc3
I0112 19:58:57.026734  4769 net.cpp:380] fc3_fc3_0_split -> fc3_fc3_0_split_0
I0112 19:58:57.026770  4769 net.cpp:380] fc3_fc3_0_split -> fc3_fc3_0_split_1
I0112 19:58:57.026831  4769 net.cpp:122] Setting up fc3_fc3_0_split
I0112 19:58:57.026846  4769 net.cpp:129] Top shape: 256 2 (512)
I0112 19:58:57.026856  4769 net.cpp:129] Top shape: 256 2 (512)
I0112 19:58:57.026862  4769 net.cpp:137] Memory required for data: 817524740
I0112 19:58:57.026870  4769 layer_factory.hpp:77] Creating layer trueloss
I0112 19:58:57.026880  4769 net.cpp:84] Creating Layer trueloss
I0112 19:58:57.026887  4769 net.cpp:406] trueloss <- fc3_fc3_0_split_0
I0112 19:58:57.026896  4769 net.cpp:406] trueloss <- gaze
I0112 19:58:57.026908  4769 net.cpp:380] trueloss -> trueloss
…
